models/LSTM_slowtrain_32_2_16_25.pth (torch, 398644 bytes, 7 tensors)

lstm.weight_ih_l0 f4 [512, 30]
000000 87 37 a0 bd 6d e7 65 bd 61 cb 0a bd 79 f1 81 3d
       -0.07823091 -0.056128908 -0.033885363 0.063448854
000010 13 68 b0 bc 5a bf 4a 3d 44 c3 6b 3d a8 92 96 ba
       -0.021534001 0.049498893 0.057559267 -0.0011487799
000020 de 14 0a bd 0a 5a 53 bd 3e 9b a4 3d f4 c7 58 bd
       -0.033711307 -0.05159954 0.080374226 -0.052925065
000030 d5 db a1 3d a6 2e 98 3b 42 ef 98 bd 83 89 95 bd
       0.07903258 0.004644233 -0.0746751 -0.07301619
000040 fc 24 ad bc 59 0e 40 bd 24 ad 58 bc db dd 8b bd
       -0.0211358 -0.046888683 -0.013224874 -0.06829425
000050 c1 b8 36 3d c8 b8 9b bd a1 a2 72 3d 8b 95 1e 3d
       0.04460979 -0.076036036 0.059237126 0.038716834
000060 9e b8 5a 3d bd bf 2e 3b 84 61 7f 3d 54 07 b4 bd
       0.05339872 0.0026664578 0.062348858 -0.0879046
000070 f2 0e 40 bd d4 fa a0 bd 0d 90 18 3d 60 6a e0 3b
       -0.046889253 -0.07860342 0.037246753 0.0068486184
000080 7f f3 9a bd 0a df 28 bd 86 e1 03 3d fb a3 27 3c
       -0.075659744 -0.04122833 0.032197498 0.010231967
000090 b7 5f de 3c 32 d9 79 3d e1 f3 e3 bc e9 7c a8 3d
       0.02714525 0.06099815 -0.027826251 0.0822695
0000a0 14 26 61 3c c0 9f 27 3d 87 22 25 bd e0 68 43 bd
       0.013741989 0.040923834 -0.04031613 -0.04770744
0000b0 8b ba b1 bc 29 63 fa 3c 18 60 ae bb 01 cb d5 3c
       -0.021695396 0.030564861 -0.005321514 0.026097776
0000c0 ee 36 eb 3c a6 1b 85 bd 99 78 cb 3b 84 e6 90 3d
       0.028712716 -0.06499414 0.0062094447 0.07075217
0000d0 e4 b0 54 bd fe 03 5a bd 6c ea 9c 3d 23 05 10 bd
       -0.05192651 -0.053226463 0.076619 -0.03516115
0000e0 69 da 96 3d d0 d7 80 3d af 37 83 3d 7d 64 21 bd
       0.07365877 0.06291163 0.06407105 -0.039402474
0000f0 6b fa 63 3a 22 ca 5d bd 7c 60 88 3d 08 91 76 bd
       0.0008696678 -0.054147847 0.06659028 -0.060196906
000100 b3 56 df bc c7 1b b0 3d af d3 1a bd b0 f9 f5 bc
       -0.027263021 0.08599048 -0.037799533 -0.030026287
000110 35 4b 6f 3c c2 e4 21 3b f1 09 84 3b da 7e 9a bd
       0.014605333 0.0024703 0.0040295054 -0.07543726
000120 53 e8 bb bc fd 35 39 3c 1c 9c 3b bc c7 67 b7 3c
       -0.02293793 0.011304376 -0.011450794 0.022388352
000130 8a 2f 48 3d 29 1f 06 bd 54 b7 8d bd db c6 a1 3b
       0.04887346 -0.03274456 -0.06919733 0.0049370355
000140 5d 9a 15 3d 97 44 5f 3d 53 bf ca 3c ba 6a 65 3c
       0.036524165 0.05450877 0.024749434 0.014002496
000150 a8 ce 9a bd 50 a2 f4 3c 1c a7 89 3d 03 75 c0 bb
       -0.07558948 0.029862553 0.06721327 -0.005873324
000160 82 7c 91 3d 75 99 8b 3d 30 cb 6a bd 25 db d9 39
       0.07103826 0.06816379 -0.05732268 0.0004155274
000170 4e 58 65 3d a5 5f b0 bc eb 83 6e bd b7 91 cd 3c
       0.055992417 -0.021529982 -0.058231276 0.025093896
000180 2a 59 01 bd e2 fb 80 3d fe 24 9b 3d 91 b0 5e bd
       -0.031579174 0.06298043 0.07575415 -0.054367606
000190 8f 9e d4 3b 7d cb 83 3d e3 31 39 bd 75 b8 40 bd
       0.006488628 0.06435297 -0.04521359 -0.047050912
0001a0 16 e1 43 3b 4d 81 aa 3d 94 38 6a 3d d2 b8 85 3d
       0.00298888 0.083254434 0.057182863 0.06529392
0001b0 8d 18 a5 bd 40 f8 b9 bc d8 25 c6 3b 46 31 82 3d
       -0.08061323 -0.022701383 0.006046992 0.063570544
0001c0 2a bc 0a 3d 27 51 0f bd 1a 9c 78 bd c0 cf 9b 3c
       0.033870853 -0.034989502 -0.060695745 0.019019961
0001d0 5a 0b 7f bc 2b 93 02 bd 05 a5 fb bc 07 4c 42 bd
       -0.015566671 -0.03187863 -0.030718336 -0.047435787
0001e0 84 4b 77 bc 4b c0 44 bc d7 ab 7d 3d 28 0d 85 bd
       -0.015093688 -0.012008737 0.061931457 -0.0649665
0001f0 85 9d a1 3d 82 1c a6 3d 2d c7 2e bc 89 e6 cb 3c
       0.078913726 0.08110906 -0.010667604 0.024890201
000200 cb 5e 10 bd f8 77 40 3d 2f d2 8f 3d dc 23 31 3c
       -0.03524665 0.04698941 0.07022511 0.010811772
000210 dd 5f 26 3d a8 cd 47 3d cc 5b d3 bc b9 52 33 bd
       0.040618766 0.048780113 -0.025800608 -0.043780062
000220 22 1f 68 bd 6f a5 2f bd 7f 8d 88 bb 6c e5 7c bd
       -0.056670316 -0.04288238 -0.0041672583 -0.06174223
000230 88 f8 14 3d 01 04 9c 3d d6 81 af 3c 18 20 b2 bd
       0.03636983 0.07617951 0.021424215 -0.08697528
000240 d7 a2 f3 bc 24 a5 d2 3c 13 9e cb 3c 33 92 b0 bd
       -0.029740734 0.02571351 0.02485565 -0.08621635
000250 8c c7 af bc 46 17 ab 3d 05 77 48 3d 28 60 c3 bc
       -0.021457456 0.083540484 0.04894163 -0.023849562
000260 b2 f8 7d 3d 19 72 55 3d 14 ef e3 bc 02 e7 a1 bd
       0.062004752 0.052110765 -0.027823962 -0.07905389
000270 07 5a 7c bd 5d 68 39 3d 22 cc ac 3a f9 bd 2f 3d
       -0.061609294 0.045265544 0.0013183395 0.04290578
000280 de 36 9c bc c7 f0 89 bd 81 41 82 bd bb f9 9c 3c
       -0.019069131 -0.06735378 -0.0636015 0.01916205
000290 4e 2d 3f bd 53 b6 0f 3d 1a 18 a1 3d 8d 00 90 bd
       -0.046674065 0.035085987 0.07865925 -0.07031355
0002a0 1d 52 7f 3c 55 5d 4d bd 9b 8e 0d bc c3 ca a7 bc
       0.015583542 -0.050137836 -0.008639957 -0.020482427
0002b0 55 bf da 3c 36 15 d9 bc 89 50 43 3d c5 f0 86 bc
       0.026702562 -0.026499372 0.047684226 -0.01647223
0002c0 7f 31 f4 bc 73 aa ac bd bb 95 8d bd e8 ef 84 bc
       -0.029808758 -0.08430948 -0.069133244 -0.016227677
0002d0 d8 64 d6 3c 7d d1 88 3d c1 c1 e8 3c 8f 30 96 bd
       0.026171133 0.06680582 0.028412702 -0.073334806
0002e0 2f 55 b4 bc f5 bc 27 bd 1d 79 12 bd cb e1 8e bd
       -0.022013275 -0.040951688 -0.035760034 -0.0697666
0002f0 43 e8 70 bc 62 03 a8 bd df 10 31 bd 0b 28 30 ba
       -0.014703813 -0.0820377 -0.04322898 -0.0006719834
000300 df 49 49 bd be 59 84 3d 34 49 26 3d 6b c4 4f 3d
       -0.049142715 0.064624295 0.040597156 0.05072443
000310 5f 06 94 3d dc 3f 38 bd 9f 2b 9f 3d a2 19 86 3d
       0.07227778 -0.044982776 0.07771992 0.06547858
000320 e9 d8 a2 bd 8e 5e 36 3d 72 45 2e bd 8a a5 4b bd
       -0.079515286 0.044523768 -0.042546697 -0.049718417
000330 47 0a a8 3d 43 48 a6 bd 0e d5 88 3d 36 c8 1b bb
       0.08205085 -0.081192516 0.06681262 -0.0023770458
000340 ea 56 4e bb 8a 92 3b bd 4e e1 d5 3c 1e 0f 19 bc
       -0.003148491 -0.045794047 0.02610841 -0.009341983
000350 36 a4 2f bd f5 8c 83 bc f6 bd ae 3d 53 d4 35 3d
       -0.042881213 -0.016058424 0.08532326 0.04439194
000360 84 74 03 bc c4 bf 95 bd 6c 2f ec 3b 7a 91 86 bc
       -0.008023385 -0.07311967 0.0072078016 -0.01642679
000370 84 9d 3f 3d 12 4c 8c bc e6 d1 25 bd ef df 99 3c
       0.046781078 -0.017126117 -0.040483378 0.018783538
000380 23 90 33 3b 11 5b 1d 3c 1b 57 4e 3c 60 24 b9 3c
       0.0027399145 0.009604231 0.01259401 0.022600353
000390 af 63 61 3d 88 81 b4 3a 95 c2 2e bd 06 be a4 ba
       0.055026706 0.0013771513 -0.042666037 -0.0012568838
0003a0 0a d2 52 3d 78 a1 92 3c 7d 24 0a 3d 98 9a 92 bd
       0.05146984 0.01789926 0.033726204 -0.07158393
0003b0 3a 02 6c bd 27 bf f4 bc 1b 45 aa 3d 3a 9c 93 3c
       -0.05761931 -0.029876305 0.08313962 0.01801883
0003c0 1f 06 a6 3c 62 fc 79 bc aa d2 b2 3d 30 2e 65 bc
       0.02026659 -0.015257927 0.08731587 -0.013988063
0003d0 54 de ea bc 00 c0 93 bc a6 fe 4e 3d 3d 9d 5f bd
       -0.028670467 -0.018035889 0.05053582 -0.054593313
0003e0 54 b8 11 bd 34 27 9f 3d d3 70 33 3d 98 d8 af 3d
       -0.03557618 0.07771149 0.04380877 0.08586234
0003f0 49 99 95 bd 26 b3 a6 3b 62 31 53 3c b5 bb 56 bd
       -0.073046274 0.005087274 0.012890192 -0.052425105

lstm.weight_hh_l0 f4 [512, 128]
000000 e0 90 7b bc db d6 57 3d ac 11 28 3d 19 b4 18 3d
       -0.015354365 0.052695137 0.04103248 0.03728113
000010 6d 13 ea bc b3 03 b1 bd 90 21 f2 bc e8 41 36 bb
       -0.028573716 -0.08643284 -0.02955702 -0.002781028
000020 0a 50 39 bd f8 22 a9 3d d0 ca f8 3c f0 99 25 bc
       -0.045242347 0.08258623 0.030370146 -0.010107502
000030 e2 8d 5b 3c 31 1c b2 3d 03 8c 5b bd 8a 53 85 3d
       0.013400527 0.08696783 -0.053600322 0.065100744
000040 d2 3a 08 3d b7 9c 82 bd 86 af 16 bc ee 96 8d 3d
       0.03325922 -0.06377547 -0.0091971215 0.06913553
000050 a3 9b 86 3d 0f 8a ac bc c2 e9 6c 3d 78 c9 97 bd
       0.06572654 -0.021061925 0.057840116 -0.07411474
000060 91 03 1d bc a6 77 34 bd 3e 80 b4 3d c2 b6 76 3d
       -0.00958337 -0.04405942 0.08813523 0.060232885
000070 5c 62 b2 3d d3 5a 6e bd 12 27 80 bd b4 1e 64 3c
       0.08710167 -0.058192085 -0.06257452 0.013923336
000080 6f 99 b0 bc 6e c3 ae 3d 8f 95 f8 3c 8c ba 00 bd
       -0.021557538 0.08533369 0.030344753 -0.031427905
000090 1f 8b 1d 3a 7c 9f 51 bd 81 5f f1 3c b1 da 47 bd
       0.00060098054 -0.051177487 0.029464485 -0.048792545
0000a0 5c e4 fa 3c 29 82 50 3d e3 98 08 bc a2 ce 56 bd
       0.030626468 0.05090538 -0.008337232 -0.052443154
0000b0 8d 64 cb bc 6e c7 3c bc 9f 8f ad 3d 40 e6 54 3d
       -0.02482822 -0.011522157 0.08474659 0.051977396
0000c0 0c 56 e1 3b 10 d7 9b 3d 68 e1 95 3b b9 52 96 3d
       0.0068767127 0.07609379 0.0045739897 0.07339997
0000d0 8d f2 6c 3d 8b bb d7 3c 22 dd 85 3d 60 9e f6 bc
       0.057848502 0.026334545 0.06536318 -0.030104816
0000e0 8b 75 99 bd 93 94 87 3b 02 bc 82 bd e5 ba 2b bd
       -0.07493123 0.0041375845 -0.06383516 -0.041926283
0000f0 7d bd 2f 3d f7 c4 9a 3d 5d 31 ee 3a f9 68 ec bc
       0.04290532 0.07557099 0.001817267 -0.028858649
000100 07 33 77 bd 9f 0f a7 bd 9c 5c 78 3d f3 8d aa bd
       -0.060351398 -0.08157276 0.060635194 -0.08327856
000110 b5 b1 8d 3c c3 70 64 3d 1a b6 22 3c 40 11 c1 3c
       0.017296651 0.0557716 0.009931112 0.023567796
000120 fb 58 a1 3d 63 94 9d bd 69 e9 eb 3c e6 ae 23 3d
       0.078783 -0.07694318 0.028797822 0.039961718
000130 17 d5 a2 3d 71 df 71 bd a9 b4 97 bb a0 d1 b1 3d
       0.079508 -0.05905098 -0.0046296907 0.08682561
000140 a3 ff 1f 3c dd 5c a6 bc 56 57 ad 3d 52 48 9d bd
       0.009765538 -0.020307953 0.08463924 -0.0767981
000150 03 1a 57 3d f5 79 a6 bd e5 94 41 3d 91 9e a1 bd
       0.05251504 -0.0812873 0.047261138 -0.07891572
000160 bb 8a d5 3c 78 41 a4 3d 40 fb 91 bd 1c 7c c3 3c
       0.026067128 0.080203 -0.07128 0.02386289
000170 63 9b 7d 3d e2 4d 9b 3d 59 b7 20 3d 99 8c 88 3d
       0.061915766 0.07583214 0.039237354 0.06667442
000180 df 4f d2 bc 0d 1f ff 3c 81 cf 51 3b 21 00 88 3d
       -0.025672851 0.031142736 0.003201455 0.066406496
000190 63 df 9c bc fa a0 39 bc ec 35 d9 3b c1 11 1c bd
       -0.019149488 -0.011329884 0.0066287424 -0.03810287
0001a0 62 3e 05 3d e0 22 0b 3c 22 97 f0 3b e4 28 93 3d
       0.032530196 0.008492202 0.007342235 0.07185534
0001b0 b4 65 7e bc 5f 2c d5 bc d8 f2 81 bd bf 8b 82 3d
       -0.015527178 -0.026022134 -0.06345147 0.06374311
0001c0 40 1c 9f 3d e9 95 4c 3d 48 a6 a0 3d 74 86 78 bc
       0.0776906 0.049947653 0.07844216 -0.015168775
0001d0 da 4b ad bd e3 5c 65 bb 91 b6 94 3d 7c 13 a4 bd
       -0.08461733 -0.0034997992 0.07261384 -0.08011529
0001e0 f5 fc ae bc 39 e8 1d 3d 41 17 e6 bc 37 e4 93 3d
       -0.021360854 0.038551543 -0.02808726 0.07221263
0001f0 da 4d a6 bd fa 12 12 39 d6 28 a7 bd 1c 2e 1f 3d
       -0.08120318 0.00013930714 -0.08162086 0.038862333
000200 33 66 99 bd f5 b6 a9 bd 24 d9 89 3d a1 d5 75 bd
       -0.07490196 -0.082868494 0.067308694 -0.060018186
000210 f9 a3 e5 bc b3 24 9c 3d c8 34 26 bd 62 18 41 3c
       -0.02803229 0.07624187 -0.04057768 0.0117855985
000220 d8 d2 95 bd f4 f7 e2 bc 5f 22 78 3c 1d 07 f3 3c
       -0.07315606 -0.027706124 0.015144913 0.029666478
000230 8d 92 72 bd 4c b1 96 bd 12 98 86 bd 90 4f 9b 3d
       -0.059221793 -0.073580354 -0.06571974 0.07583535
000240 dc 58 26 3b 94 6d 5d bd e0 2d 7e bd 19 02 84 3d
       0.0025382554 -0.05405958 -0.06205547 0.064457126
000250 51 4d a7 3d a2 67 b1 3d ea eb 8c bd a1 49 24 bb
       0.08169044 0.086623445 -0.068809345 -0.00250683
000260 a7 9d 24 3c f9 cc 60 bd 4b 5d 1f 3b 97 1e 1d 3d
       0.010047353 -0.054882977 0.0024317082 0.03835925
000270 4a a8 90 bd 50 25 41 3d b3 97 6d bd d0 54 e4 3c
       -0.070633486 0.047154725 -0.058006 0.027872473
000280 a6 1d 8c 3d ba 47 8e bd 67 39 a2 bd 68 15 80 bd
       0.068415925 -0.069472745 -0.07921105 -0.06254083
000290 cd b9 c5 bc 1e fb 41 3c 19 d2 ae bd 90 24 41 3d
       -0.024136448 0.011839656 -0.08536167 0.04715401
0002a0 ae a4 91 3d 5d 07 a9 3d b9 3d e1 3c 75 ce 91 3d
       0.07111488 0.082533576 0.027495252 0.07119457
0002b0 3f 27 9b bc 56 61 d7 bc be e7 1c 3c 85 59 62 3a
       -0.018939612 -0.02629153 0.009576736 0.0008634555
0002c0 fa 72 ef bc 7a 99 4c bd e3 86 61 bd 7e 75 51 bd
       -0.02922963 -0.049951054 -0.05506028 -0.05113744
0002d0 30 95 c8 bc 6c c6 7d bd e6 01 aa bd 53 52 74 3d
       -0.0244852 -0.061956808 -0.08301143 0.059648823
0002e0 e6 d5 c2 3c 86 31 b3 bb 27 6a 58 3d 79 80 a4 3b
       0.023783635 -0.00546855 0.05283561 0.005020198
0002f0 96 7d 0c 3d 1f fa 0e bd a7 01 46 bc 9c 3c 99 3d
       0.034299456 -0.034906503 -0.012085355 0.074822634
000300 be 0e b2 3d 42 42 39 bd 6d 79 75 bc 5f ea 98 3d
       0.08694218 -0.045229204 -0.014982563 0.07466578
000310 89 bf 2c bd 4c cc 89 bd 7a b4 2e bd 05 75 8d bd
       -0.04217485 -0.0672842 -0.042652585 -0.06907085
000320 31 1e 49 3d e4 92 49 bd 21 d9 98 bc 46 18 60 bd
       0.04910106 -0.04921235 -0.018658223 -0.05471065
000330 da 1c 36 bb fe 09 99 bd ec 7f 81 bd e2 2e a4 bd
       -0.0027788193 -0.07472609 -0.06323227 -0.08016755
000340 a8 d7 b8 bc ef 1c 88 bd 30 3f 2d bc 59 a5 4f bd
       -0.02256377 -0.06646144 -0.010574147 -0.050694797
000350 8a b5 5c 3d 42 2c 87 3b 24 fc 29 bc 97 f5 8c 3d
       0.053884067 0.004125149 -0.010375056 0.0688278
000360 41 40 90 3d 0d a4 a7 bd 28 41 90 bd 38 3a 97 bd
       0.070435055 -0.08185587 -0.070436776 -0.07384151
000370 4b 03 5d 3c 81 8d 50 3d 9b 32 96 3d 76 2d 78 bd
       0.013489555 0.0509162 0.07333871 -0.06059023
000380 ea 2b fc bc e4 1c 4f bc 41 68 7b bc 39 0e af bd
       -0.030782659 -0.012641165 -0.01534468 -0.08547635
000390 52 b9 87 bd d0 bc 98 3c d0 bf aa bd e9 71 a9 3d
       -0.06627144 0.01864472 -0.083373666 0.0827368
0003a0 bc 5c 39 bb 2e a2 0b 3d c9 72 88 3d db e7 ae bc
       -0.0028284034 0.034090213 0.066625185 -0.021350792
0003b0 bf ec 99 bd 44 52 b0 bd d2 ab ff 3c 12 78 47 3c
       -0.07515859 -0.08609441 0.03120986 0.012174623
0003c0 16 09 b3 bd 2c f7 a7 bc 1c 47 cc 3c 4e e2 64 3c
       -0.087419674 -0.020503603 0.024936251 0.013969971
0003d0 db 48 9a bd 22 c2 99 bd e6 d6 ab 3c cb 7e 1e bd
       -0.07533427 -0.07507731 0.020976495 -0.038695138
0003e0 95 4a 15 bd 10 90 88 3d 00 60 84 3d fd ab c1 bb
       -0.03644808 0.06668103 0.06463623 -0.005910395
0003f0 d3 13 a1 bd 64 20 a2 bc da 42 93 bd 37 7c e3 bc
       -0.07865109 -0.019790836 -0.07190485 -0.027769191

lstm.bias_ih_l0 f4 [512]
000000 dd ed 31 bd 98 d7 0c 3d 6a 8a 8b bd 78 be b0 3d
       -0.043439735 0.034385294 -0.0681351 0.08630079
000010 fc 7c 56 bd b6 dd 50 bd 4e 0c 49 3d dd 35 75 3d
       -0.05236529 -0.05099269 0.049084 0.05986582
000020 d4 49 43 3c 7c da c4 3c a7 47 96 3d 28 a9 02 3d
       0.011919457 0.024029963 0.07337885 0.0318996
000030 4d 90 10 3d e8 a8 82 3d 2b 45 17 bc 43 26 c7 3c
       0.035293866 0.063798726 -0.0092327995 0.024310237
000040 16 5a 94 3d 69 c4 98 bd 8b ab 01 bc a9 3b a5 bd
       0.07243745 -0.07459337 -0.007914434 -0.0806802
000050 40 36 96 bd f3 8a 9d bd 43 ed 64 3c 1e 05 50 bd
       -0.07334566 -0.07692518 0.013972583 -0.05078613
000060 5e 39 85 3d 9b 19 22 3d b9 69 85 bc ab 50 48 3c
       0.065050825 0.0395752 -0.016285764 0.012226264
000070 de 1f 42 3d 82 92 7a bd 66 42 2e 3d 2d b6 80 3d
       0.047393672 -0.061174877 0.04254379 0.06284747
000080 5f c6 88 3d 16 9d fb 3c 1b db 32 3d e4 d7 26 bc
       0.06678461 0.030714553 0.043665987 -0.010183308
000090 90 04 0d bd 6a c4 09 3d 5e e4 0b 3c e4 fb 1b bc
       -0.03442818 0.03363458 0.008538334 -0.009520505
0000a0 56 e9 74 bd 75 df 8d bd 3a 37 97 bd b6 a0 63 bd
       -0.05979284 -0.06927387 -0.073835805 -0.055573188
0000b0 b2 99 1c bc 49 f3 98 bd 64 34 4f bd 27 47 b0 3c
       -0.009558128 -0.07468278 -0.050587073 0.021518303
0000c0 94 e4 a0 3d 28 2d f5 bb f2 2c ff 3c 74 13 80 3c
       0.07856098 -0.0074821897 0.031149361 0.015634276
0000d0 93 3c 9a bd 8a ca a5 bd 8e 7e 80 3c 81 62 22 3d
       -0.07531085 -0.08095272 0.015685346 0.039644722
0000e0 4b ca 75 3c 56 b7 f7 3c 56 d4 1d 3d f2 dc 71 3d
       0.015001844 0.030238789 0.038532577 0.0590486
0000f0 7a d4 0d 3c a6 d4 94 3d b8 0a 4a bd 4f 77 20 3d
       0.008656615 0.07267122 -0.04932663 0.03917628
000100 8b e1 12 3d d6 fa 90 3d a6 4c 15 3d 44 cb dc bb
       0.035859626 0.07079093 0.03645005 -0.0067380983
000110 8d 0d b6 bc 59 ca 16 3d da a4 85 3b 2a ee 61 3d
       -0.022223258 0.036814068 0.0040784897 0.05515877
000120 7d 29 89 3d a0 3a 1f 3b e7 50 c9 bc a8 92 bd bc
       0.066973664 0.0024296418 -0.02457471 -0.02314122
000130 7a ce a0 3d 1b 07 a8 bd 7d ce aa bd 57 92 88 bd
       0.07851882 -0.0820448 -0.08340166 -0.06668537
000140 44 cb bb bc 07 a6 9a 3d f7 51 a0 3d 71 8c 36 3d
       -0.022924073 0.075511985 0.078281336 0.04456753
000150 b5 37 54 bb 13 24 99 bd eb 9d 53 bd 05 98 08 3d
       -0.0032381837 -0.07477584 -0.051664274 0.033348102
000160 5c 59 17 bd 2b 08 e5 3c df 26 6e 3d c8 82 a4 3d
       -0.036950454 0.027957996 0.05814254 0.08032757
000170 83 5e 1a bd 9b 87 eb 3c 85 11 c9 3c a1 03 be bc
       -0.03768779 0.028751185 0.024544487 -0.02319509
000180 0c a9 7b 3d 91 90 90 3c 2a 85 1e bc 79 19 a8 bc
       0.061440513 0.01764706 -0.0096753035 -0.020519959
000190 2f 0f 62 bd fd d9 42 3d f0 2f dd 3c 23 b7 1a b8
       -0.05519026 0.04757117 0.027000397 -3.688702e-05
0001a0 a8 d4 6a 3a cd 85 79 3d 04 45 eb bc 2e 51 27 bc
       0.000895808 0.060918618 -0.028719433 -0.010212226
0001b0 2f 06 64 3d a3 12 63 bd ac ff 85 bd 69 83 a9 3d
       0.05566996 -0.055437695 -0.06542906 0.082770176
0001c0 0a 89 97 bd 7f c7 70 3a 17 ba d9 bc 6f 03 e9 3c
       -0.07399185 0.00091850007 -0.026577992 0.02844402
0001d0 7e e9 d0 3c 29 c1 80 bd c9 22 1e bb a6 5d 90 3a
       0.025501963 -0.062868424 -0.002412962 0.0011014238
0001e0 56 5b f3 3c fa 21 47 3d 5a d5 85 3c de 18 af bd
       0.029706638 0.048616387 0.016337086 -0.08549665
0001f0 6b 5d 59 3c fe 78 a1 bd 52 72 61 bd 30 ed 02 bd
       0.0132669015 -0.078844056 -0.055040665 -0.03196448
000200 a5 02 5d 3d cf 38 65 bd 33 fb 91 39 ad 07 cb 3c
       0.0539576 -0.05596238 0.00027843713 0.024783934
000210 94 32 b2 3d f0 52 84 bd e3 4e a9 3c e5 fe 61 bb
       0.08701053 -0.064611316 0.020667499 -0.0034484204
000220 18 aa dc bc a3 d4 76 bd 82 51 d8 bc d4 7a ac bd
       -0.026936576 -0.06026138 -0.026406053 -0.08421865
000230 f9 9c 6c 3d da d0 cb bc e3 ef 6e bd d5 56 2f 3d
       0.05776689 -0.024879862 -0.058334243 0.04280742
000240 09 1b f0 bc cd 06 82 bb dd 6b 10 bc 88 16 82 3d
       -0.029309766 -0.003968096 -0.008814779 0.06351954
000250 a8 ed ab bd 3b ff 86 3d 6c 42 d8 bc 73 a5 9e bd
       -0.08394939 0.0659165 -0.02639886 -0.07746401
000260 cd ff 02 3c 8c da b4 bd b4 c2 1f bc 96 18 e6 bc
       0.007995558 -0.08830747 -0.009751011 -0.028087895
000270 c8 42 94 3d 7e 5b a0 3d c9 61 6b bd ff fe 93 bc
       0.072393 0.07829951 -0.057466302 -0.018065928
000280 ba 37 82 3d 21 95 09 bd fa 61 74 3d de 82 2d 3b
       0.06358285 -0.033589486 0.05966375 0.0026475708
000290 69 53 58 bd 08 7d 99 3d f0 3b aa 3d 85 e5 61 3d
       -0.05281392 0.07494551 0.083122134 0.055150528
0002a0 e4 4f ac bc fe 44 9a 3d 43 d8 4a 3c 29 31 17 3d
       -0.021034189 0.075326905 0.012380662 0.036912117
0002b0 6f 81 e5 bc 51 2b 9f 3d e0 5c 70 bd 41 67 41 3d
       -0.02801582 0.07771934 -0.058682323 0.04721761
0002c0 e3 e6 93 3c ae 57 86 3b d2 89 ae 3d 06 98 7a 3c
       0.018054431 0.0040998077 0.08522381 0.015295034
0002d0 59 a5 91 bd 7e b8 71 3d 5e 61 3a bd a5 9c 4e 39
       -0.07111616 0.059013836 -0.045503013 0.00019704046
0002e0 ad 63 7a 3d 6b 5b ac bc c8 7e 27 bd 23 c0 59 bc
       0.061130214 -0.021039685 -0.040892392 -0.013290438
0002f0 a5 b1 e2 bc 94 24 6d ba 7f 24 1b 3d f2 8f 06 3c
       -0.027672598 -0.0009046283 0.037876602 0.00821303
000300 e4 af 04 3c c0 a8 a4 3d 6d 08 48 bc 4c 15 db 3b
       0.008098576 0.08039999 -0.01220904 0.0066858884
000310 20 ac 2f bd 33 c3 1c bd a1 b8 49 3d b1 06 31 bd
       -0.04288876 -0.038272094 0.04924834 -0.043219272
000320 44 ce ea 3c 46 c5 88 bd dc e6 85 39 fb fd b2 bd
       0.028662808 -0.06678252 0.0002553974 -0.08739849
000330 ef 72 34 bc 4f 0d 06 bd fa 65 98 bc e9 f8 86 3d
       -0.01101373 -0.032727536 -0.018603314 0.065904446
000340 d7 10 1d 3d 50 89 a4 bd 60 17 d3 3b fe 7c 87 3c
       0.038346138 -0.08034003 0.0064419955 0.016539093
000350 17 d6 9d 3d 24 5d 74 3d c9 32 6d bd e3 d1 a9 3d
       0.0770685 0.05965914 -0.05790976 0.08291986
000360 84 9a 15 3c 9d 6b a1 bd ea 2b 70 3d bd 7a a9 3b
       0.009131078 -0.07881854 0.05863563 0.0051721022
000370 6a 54 87 bd a8 1c 84 bd 64 39 43 bd 62 b4 38 3c
       -0.066078976 -0.06450778 -0.047662154 0.011273475
000380 8b 2a 7a 3d 8b c8 18 bd e2 67 47 3d b0 62 97 bd
       0.06107573 -0.037300628 0.048683055 -0.0739187
000390 f4 37 c6 3c ae ed ac 3d ec 39 32 3d 6e cf fb 3c
       0.024196602 0.08443771 0.04351227 0.030738559
0003a0 08 5c e3 3c 0b 0d 97 3d a3 64 c4 bc 43 bd 62 3c
       0.027753845 0.073755346 -0.023973769 0.013839069
0003b0 7a 4a f9 bc af f0 6c bd 42 cc bd bb a1 8c ec bc
       -0.030431021 -0.05784672 -0.0057921717 -0.02887565
0003c0 b7 9a b4 bd d7 bc 82 3c d2 ba 9f 3d 7e a3 71 bd
       -0.08818572 0.015959186 0.07799305 -0.05899381
0003d0 b8 c9 f4 bc 11 de 8a 39 8f a5 a5 bd ce 08 fb bb
       -0.029881343 0.00026486863 -0.080882184 -0.0076609617
0003e0 83 a2 95 bc d3 0c cb 3c 0b e4 5d 3c 9a 96 54 bd
       -0.018265968 0.024786389 0.013543139 -0.051901437
0003f0 4c a9 d7 3c c5 05 c9 bc 30 98 39 3c c5 e3 87 3d
       0.026325844 -0.024538884 0.011327788 0.066352405

lstm.bias_hh_l0 f4 [512]
000000 53 e1 ab bc 3c c3 65 3d ea ab d8 bc 24 f8 67 bc
       -0.020981466 0.056094393 -0.026449163 -0.014158282
000010 33 7e dc 3c 9c ce 1f bd 29 38 f3 bc b2 fb ca 3c
       0.026915645 -0.039015397 -0.029689865 0.02477822
000020 41 5b 66 3d ce 56 50 bd 65 3b a8 3d 8f 36 64 bc
       0.05623937 -0.050864033 0.082144536 -0.013929023
000030 04 17 b2 bb 0f 4b d7 bc de 40 9c 3d 92 3f 27 bc
       -0.0054348726 -0.026280908 0.0762956 -0.010208027
000040 58 ab fc bc 0c 1b 19 3d dc bc aa bd dc af 87 bc
       -0.030843422 0.03737931 -0.08336803 -0.016563348
000050 88 b5 db 3c be 09 af bc 41 e3 a5 bc d6 fc 35 bd
       0.02681996 -0.02136695 -0.020249965 -0.044430576
000060 5a 69 b0 3d fa 10 50 bd 11 3f 2d bd 34 6b 53 3b
       0.08613844 -0.05079744 -0.042296473 0.0032259943
000070 7e d0 a9 3c 67 f1 7f 3d 72 47 3b 3d e9 f6 06 bd
       0.0207293 0.06248608 0.045722432 -0.032950316
000080 ae 6e 89 bd 22 be 83 3c 4f bc 79 3d 94 7d 85 3d
       -0.067105636 0.016081873 0.0609706 0.06518093
000090 17 60 29 3d 48 2d 47 bd 4c fe 83 bd 63 15 94 bd
       0.041351404 -0.048627168 -0.06444988 -0.07230642
0000a0 67 32 8d 3d 24 b7 97 3c 5f d6 10 bd 03 50 8b bd
       0.06894379 0.018519945 -0.03536069 -0.068023704
0000b0 ca ae 95 3d 2d bf 5a 3d cd bd c6 bb b7 f5 aa 3c
       0.07308729 0.053404976 -0.0060651065 0.02086912
0000c0 b1 1e 09 3d 88 bf 99 3b b4 d8 98 3d 00 1b cb bc
       0.033476535 0.0046920218 0.07463208 -0.024793148
0000d0 94 f3 15 bc 0b 8a 2a bd 0a fb dc bc 8d ce 37 3d
       -0.009152312 -0.041635554 -0.026975174 0.044874717
0000e0 f8 c6 56 bd bb 53 87 3d 61 aa b1 bd ea 9d 80 bd
       -0.052435845 0.06607767 -0.08675075 -0.0628012
0000f0 cb 9d 09 3b bc 38 80 3d c0 dc b2 bd d3 46 39 3d
       0.0020998593 0.06260821 -0.08733511 0.04523356
000100 2d 62 27 3b 62 76 c7 bc a6 a3 6a 3c 3d 41 a2 bd
       0.0025540695 -0.024348442 0.014321243 -0.079225995
000110 10 23 43 3b fe 97 89 3d f9 04 75 bd 97 91 a2 3c
       0.0029775538 0.06718443 -0.059819195 0.019844813
000120 4f f4 7b 3d dc e6 a8 3c 9b 16 ab bd 8e 9a 45 bd
       0.061512288 0.020617895 -0.08353921 -0.048243098
000130 c0 45 0b 3d 08 5f 99 bd a9 cc 91 bc df 58 97 bd
       0.034002066 -0.07488829 -0.017797785 -0.07389998
000140 c8 e7 89 3c 75 96 5d 3c f7 0c b7 bc 81 4d 0d bd
       0.016834155 0.013524641 -0.02234505 -0.03449774
000150 b4 a6 81 3d a5 bf 0e bd f8 77 5f bd 53 e8 86 bd
       0.06330624 -0.034850735 -0.05455777 -0.06587281
000160 61 89 a7 bc 8f ba a2 3c b1 e2 d2 bc 9f e0 9c bb
       -0.02045125 0.019864349 -0.02574286 -0.004787519
000170 82 de fa 3c 25 79 96 bb 63 e7 9f 3d 54 96 44 bc
       0.030623678 -0.0045920783 0.078078054 -0.011998732
000180 58 a1 87 bd a4 23 08 3d 27 51 36 bd 86 38 65 3d
       -0.06622571 0.033237115 -0.044510987 0.055962108
000190 1b a6 87 bc 82 89 a9 3d 57 de e7 3b 51 ed 85 bc
       -0.016558697 0.08278181 0.0070760655 -0.016348513
0001a0 97 6c 14 bd 93 0c 3e 3c b2 f6 92 bd c0 3c 8b 3d
       -0.03623637 0.011599678 -0.0717596 0.067986965
0001b0 5d 8e 89 bc f1 4a 28 bd cd 9c 98 3c 22 c9 d7 bc
       -0.016791517 -0.041087095 0.018629456 -0.026341025
0001c0 64 15 6d 3d 68 c6 9e bd 5b 78 c6 3c 8d 6e 79 3d
       0.057881728 -0.07752687 0.024227312 0.060896445
0001d0 d0 8e 9a bd 8c 61 a9 3c 58 4e 57 bd c1 18 ec 3b
       -0.075467706 0.020676397 -0.05256495 0.0072050993
0001e0 85 9c 11 bd d5 1b 8c b9 66 f7 f5 3c 61 cb 94 3c
       -0.03554966 -0.00026723617 0.030025195 0.018163385
0001f0 88 5e 5b 3d f8 9b 04 3c c2 8b 3f bd 6e 75 63 bd
       0.05355695 0.0080938265 -0.046764143 -0.05553191
000200 cf 20 8d 3d 9c 2a 6e 3d ba 1f a6 bd 26 de 64 3d
       0.06891023 0.058146104 -0.0811152 0.05587592
000210 5f d0 5d 3d b2 6a f4 3c e4 a6 a4 3d b6 bd 58 3d
       0.054153796 0.029836033 0.08039644 0.052915297
000220 8d a9 87 3d 86 d5 81 bd 16 ca 3e bd c2 12 9e bd
       0.06624136 -0.063395545 -0.046579443 -0.077184215
000230 b1 23 b2 bc 68 74 a6 bd 52 2c 10 bc 01 fb 7e 3d
       -0.021745535 -0.081276715 -0.008799629 0.062251095
000240 bd f1 21 bc fd e0 98 3c 28 34 36 3b c7 e7 41 3d
       -0.009884295 0.01866197 0.0027802084 0.04734018
000250 49 c9 d1 bc 79 9d 9a bc c2 69 4a ba 40 4e 53 bd
       -0.025608676 -0.018873917 -0.00077214476 -0.051588297
000260 7b c2 c0 3c 27 ba 02 3d da 39 69 3d ea fb 01 3d
       0.023530236 0.03191581 0.056939937 0.031734385
000270 60 aa 15 bd e8 38 46 3d 00 9d 91 3c 86 1c 98 bd
       -0.036539435 0.048394114 0.017775059 -0.074273154
000280 87 b6 9a bd ce 5d ac bd ca fd 20 3d c6 df 76 3d
       -0.075543456 -0.08416329 0.039304532 0.060272
000290 e6 40 3d 3d b4 88 13 3d f2 b7 93 3d 9d 16 76 bc
       0.04620447 0.036019042 0.07212819 -0.01502004
0002a0 68 4b 45 bd 81 f7 7e bb 06 3d 60 bd 1e 86 6c bd
       -0.048167616 -0.0038904848 -0.054745696 -0.05774509
0002b0 35 ab 78 3d f6 e4 7a 3d 39 3e 92 3d 8d 19 8b bd
       0.06071015 0.06125351 0.07140774 -0.06791983
0002c0 d7 3c 8b 3d 82 d2 a4 bd be 5f d9 3c 71 de 23 bd
       0.06798714 -0.08047964 0.026534911 -0.04000706
0002d0 b6 58 1f bd ca 59 7e 3d db 26 a5 bc fe 82 76 3c
       -0.03890296 0.06209735 -0.02016013 0.015045879
0002e0 11 d7 0c 3d 2c 70 f8 3b c0 34 a5 3b 93 b9 2d bc
       0.03438479 0.0075817313 0.0050416887 -0.010603326
0002f0 3f 14 ba bb 5c e9 a8 bd 48 66 37 bd 0b aa a1 bd
       -0.005678683 -0.08247635 -0.044775277 -0.07893761
000300 13 75 8c bd dc 7e d6 3c ea 97 66 3b be 92 6f 3d
       -0.06858268 0.026183538 0.0035185763 0.058489554
000310 e2 aa fb 3c d3 8a ae 3d 4b 47 a6 bd 3d b1 45 3d
       0.030721132 0.08522572 -0.08119067 0.04826473
000320 6c 29 76 3c 8f 98 cb 3c 7c b0 2c 3d 75 7a 6f 3c
       0.015024524 0.024853019 0.042160496 0.014616598
000330 8a ef 21 3d 3b 93 9d 3d 60 a6 a9 3b 1e 79 d6 3a
       0.039535083 0.076940976 0.005177304 0.0016363
000340 81 b4 87 3d b2 1c 86 3d 4c 6a 65 3d 5b b1 6a bd
       0.06626225 0.06548442 0.056009576 -0.057298046
000350 e9 34 95 bc 80 d2 e8 bc c2 6f 44 bd db d6 4d 3d
       -0.018213706 -0.028420687 -0.047958143 0.05025373
000360 cf 90 fa 3c 05 8f b1 bd ab 50 8b bd b0 ff 6c bc
       0.030586628 -0.08669857 -0.068024956 -0.0144652575
000370 49 ae c4 bc 64 c0 4b bd a3 52 a1 3c cc 9c 59 bd
       -0.024008887 -0.049744025 0.019692725 -0.05312805
000380 cb f2 62 3d f0 10 8e bd a6 69 36 3d 19 33 99 3d
       0.055407327 -0.06936824 0.044534348 0.07480449
000390 bd f1 0b bd c0 d6 dc bc 3b 65 b2 3c 44 73 91 3d
       -0.034166086 -0.02695787 0.021776786 0.07102063
0003a0 2c a7 99 bd 02 2a 05 3d 80 44 0e bd e2 08 58 bd
       -0.07502589 0.032510765 -0.034733295 -0.052742846
0003b0 4b 8c 8b bd 72 b1 73 bc 75 09 95 3d a7 6f 96 3d
       -0.06813868 -0.014873849 0.072771944 0.07345515
0003c0 bd 83 88 3c 9c 81 af 3d 38 78 da bc 70 29 81 bd
       0.01666438 0.08569643 -0.026668653 -0.06306732
0003d0 1f 6b 9f 3d b6 48 14 bd c0 fe 5e bd af 13 aa bd
       0.077841036 -0.036202155 -0.054442167 -0.083045356
0003e0 64 81 4a 3d 98 9e 97 3d a7 b2 5c bd 96 53 90 3c
       0.049439803 0.07403296 -0.053881314 0.017617982
0003f0 c1 d2 1c 3d 0c 81 af ba ff 28 f1 ba 32 15 7e bc
       0.038286928 -0.0013389899 -0.0018399059 -0.015507983

fc.0.weight f4 [128, 128]
000000 20 c5 a1 bd cf ee 59 3b ad 15 8e 3d b5 ea 82 bb
       -0.07898927 0.0033253913 0.06937728 -0.0039952644
000010 a2 74 a5 bd 09 45 0e 3d fb c6 b0 bd 9f 23 ab 3d
       -0.080788866 0.034733806 -0.086317025 0.083564036
000020 4e 15 8a bb d9 3b c6 bc 6e 5d 83 bd ae 8c 77 bc
       -0.0042139655 -0.02419846 -0.06414305 -0.015109224
000030 7c 65 3f bb 34 2a f1 3c 5f 41 74 3d dc 2e 37 3c
       -0.0029204777 0.02943907 0.059632655 0.011180606
000040 cd 38 64 bc ee ff 97 3a 0c 1c 85 bd b3 17 35 3d
       -0.013929558 0.0011596659 -0.0649949 0.044212054
000050 ce 8b f8 3c 6d ef 14 bd fa 0b 8e 3d a7 ec a3 bd
       0.030340102 -0.036361147 0.06935878 -0.08004122
000060 02 42 d1 3c f1 b7 9e bd 38 42 ae 3d 8b 56 60 3d
       0.02554417 -0.07749928 0.08508724 0.054770034
000070 d6 43 3d bc 7f 9e 1a 3d 3a e0 e6 3c 5a 60 9d bd
       -0.011551818 0.03774881 0.028183091 -0.07684393
000080 de ae 97 bd ed 67 7f bd 02 14 7e bc 6b 45 b8 bc
       -0.074064 -0.06235497 -0.0155077 -0.022494039
000090 cf 1a 9a bc 78 4f 6a bd 65 11 3d bd c5 cb ac 3d
       -0.018811611 -0.057204694 -0.046159167 0.084373035
0000a0 6a 1c a7 bd 65 b7 8b 3d 3a e0 9c bd 8d 1d d4 3c
       -0.081597164 0.06822089 -0.07659955 0.025892997
0000b0 5a be 49 3d 49 74 fc 3c 48 96 fd bc b6 15 c8 bc
       0.0492538 0.030817168 -0.030955449 -0.024424415
0000c0 b2 34 a6 bc 0d 13 4b 3d 89 79 25 3c 21 a6 8d 3d
       -0.020288799 0.049578715 0.010099777 0.06916452
0000d0 a7 bd 8f bd 18 eb ec bc f8 e8 56 3c 57 e3 86 3d
       -0.07018595 -0.028920695 0.0131170675 0.065863304
0000e0 b1 e1 2c bd cc fd 1f ba b0 de 63 bd b5 d2 08 bc
       -0.042207424 -0.00061031873 -0.055632293 -0.008351018
0000f0 21 0a 45 3d a6 1d 32 bd bc 00 ac bc 1c c5 5b 3d
       0.048105363 -0.043485306 -0.020996444 0.053654775
000100 bc 21 d2 3c 9d e2 8f bd 75 55 01 3d 47 ce 2f 3d
       0.025650851 -0.07025645 0.03157564 0.04292133
000110 a8 ec 97 bd cd 3a 18 bd d3 cd 4d 3d f9 88 6b 3d
       -0.074181855 -0.03716545 0.050245117 0.057503674
000120 70 b9 03 3d e7 9f 5b bd d8 78 6e bd 1b 38 4c 3d
       0.03215927 -0.05361929 -0.058220714 0.049858194
000130 5c 84 1e bd d2 da 82 bd 39 c5 7f bd e9 5c 20 3c
       -0.038700446 -0.06389393 -0.062443946 0.0097877765
000140 1e bc 55 bd 24 27 4e bd cd 81 34 bd e7 c9 a7 3d
       -0.052181356 -0.050330296 -0.0440691 0.08192807
000150 b5 f9 42 3d 1a b6 23 3d 42 e2 bc 3c 39 a3 82 3d
       0.04760142 0.039968587 0.023057107 0.063787885
000160 a2 6a 45 3d 86 cd 8b bd e3 2e cb 3c 47 36 99 bd
       0.048197396 -0.0682631 0.02480263 -0.07481056
000170 38 e0 ab bb ef 99 8c 3d f6 d2 7e bd 30 7b 1c 3d
       -0.005245235 0.06865298 -0.062212907 0.03820342
000180 87 d9 34 3d a9 ef cf bc 2c 13 57 3d 70 08 77 3d
       0.044152763 -0.025382834 0.052508518 0.06031078
000190 81 80 84 bd 6f 88 11 bd d1 46 27 bb bf 18 a9 3a
       -0.06469823 -0.035530504 -0.0025524388 0.0012901052
0001a0 55 a0 c4 ba 4e f1 81 bd f3 10 96 bd b9 70 96 bd
       -0.0015001396 -0.06344853 -0.073274516 -0.07345719
0001b0 e4 fb 9b 3d d5 c4 ab 3c 3a ff 61 3d d8 46 e5 3c
       0.07616404 0.02096788 0.055175044 0.027987882
0001c0 4d fa 7b 3d 65 be da 3c 61 82 69 bd 98 a6 49 bd
       0.061518002 0.026702115 -0.057009105 -0.04923114
0001d0 d9 0b 96 3d cd a6 38 3d f1 21 67 3d 25 67 55 3d
       0.073264785 0.04508095 0.056428853 0.05210032
0001e0 2b 2d 66 3d c4 e0 95 3d 49 88 8b bd 0d e6 4a 3c
       0.05619542 0.07318261 -0.06813104 0.01238395
0001f0 91 43 fb bb fb 5c ea bc c6 93 94 ba 17 78 30 3d
       -0.0076679667 -0.02860879 -0.0011335544 0.043083277
000200 b6 b0 93 3d 56 9e ae bd 4d 64 ac bd 22 fd 98 3d
       0.07211439 -0.08526294 -0.08417568 0.07470156
000210 7a 71 59 bd 1d c8 3c bd ee 18 a9 bd e7 35 76 bc
       -0.053086735 -0.04608928 -0.08256708 -0.0150275
000220 16 0e e2 3c 94 9a 1e 3c c9 4b 4b bd bf bd 73 bc
       0.027594607 0.009680409 -0.04963282 -0.014876782
000230 9f e8 9f 3d 0d 17 49 bc ab 3e e1 3c d1 86 85 3d
       0.07808041 -0.012273562 0.027495703 0.06519855
000240 c4 4d ad bd 45 62 8e bc dc 21 02 bc 25 4a 77 bd
       -0.08462098 -0.017380843 -0.007942643 -0.060373444
000250 ad 62 8b 3d 05 da 70 bc 29 b7 5e 3d 53 89 ae bd
       0.0680593 -0.014700417 0.054373894 -0.08522286
000260 e9 44 b4 3d 4e ba 83 3c 93 36 85 bd d1 65 c7 bc
       0.08802206 0.016080048 -0.0650455 -0.024340542
000270 0f 25 58 bd e7 76 02 3d a5 1d 85 bd 56 cd 3f 3d
       -0.052769717 0.031851675 -0.06499795 0.046826683
000280 3a 0b 34 bd 59 14 a7 bb 9e e9 ae bc b0 89 25 bc
       -0.04395602 -0.005098861 -0.021351632 -0.010103628
000290 b9 f4 72 3d 0f 7d cf 3c f7 62 ca bc 71 67 e1 bb
       0.059315417 0.025328187 -0.024705393 -0.0068787863
0002a0 4a 96 9f bc da 48 22 bd a9 b3 01 bc 04 6a 99 bd
       -0.019480843 -0.039620258 -0.0079163695 -0.07490924
0002b0 8e 10 e1 bb fc 89 4c bd a8 fe 3e bc 63 bc 9f bd
       -0.0068684286 -0.04993628 -0.0116573945 -0.07799604
0002c0 db 83 16 3d d5 85 37 3d ba a1 a9 3d b2 ea c9 3c
       0.03674684 0.044805367 0.082828 0.024648044
0002d0 b0 05 94 bd 00 41 14 3a 4c b1 9a bd 1b ac 53 3d
       -0.07227647 0.00056554377 -0.07553348 0.051677804
0002e0 8a d4 7e 3d 63 f5 29 bd 52 53 e9 3c a0 93 68 bd
       0.06221441 -0.041493785 0.028482113 -0.05678141
0002f0 99 cd fb 3c 62 c4 f3 bc 9c 2e f1 3c bb c4 2c 3d
       0.030737685 -0.029756729 0.02944117 0.042179804
000300 d3 80 5f bc 95 cd 2c bd 32 e6 ab ba 76 a6 64 bd
       -0.013641554 -0.042188246 -0.0013114868 -0.055822812
000310 24 3e 92 3d 03 64 ac bd a8 a5 aa bd 41 64 37 bd
       0.07140759 -0.08417513 -0.08332378 -0.044773344
000320 0f 62 2c bd a1 14 f1 3b e5 22 89 bd 01 d9 72 bd
       -0.042085703 0.0073571955 -0.06696109 -0.059288982
000330 8d 1f 47 3d 63 64 9c bd 88 72 e4 3c ba df b0 bd
       0.048614074 -0.07636335 0.027886644 -0.086364225
000340 82 f8 b6 3c c3 95 b0 3c cc 0f ba bc d5 46 b9 3c
       0.022335295 0.021555787 -0.02271261 0.022616783
000350 36 65 c4 bc e3 b0 8a 3c 53 a1 74 bd cc 35 75 3d
       -0.023974042 0.01693005 -0.059724163 0.059865758
000360 e8 bf 95 3d 0e e2 9e bd a5 33 04 3c 0c 34 51 3d
       0.07311994 -0.0775796 0.008068954 0.051075026
000370 85 83 37 bd 18 16 5b bd 7e 4f 84 3c 7a 81 76 3d
       -0.04480316 -0.053487867 0.016151186 0.060182072
000380 c0 a5 01 bd ba 26 81 3c 17 0f 33 3d 6f 96 48 bd
       -0.031652212 0.015765537 0.043715563 -0.04897159
000390 59 04 63 bd 0f 48 a5 bd f4 e8 aa 3d 95 e2 03 bc
       -0.055424068 -0.08070385 0.083452135 -0.008049627
0003a0 b0 76 0c 3d 44 08 58 bd 86 0e b2 bd eb da e4 3b
       0.034292877 -0.052742258 -0.086941764 0.006984105
0003b0 1b a4 cc bc b7 71 97 bd 15 f2 da bc 11 30 6d 3d
       -0.024980595 -0.07394736 -0.026726762 0.057907168
0003c0 32 78 08 3d fd b4 fc 3c 11 10 63 3c a5 ae 65 3c
       0.033317752 0.03084802 0.013858811 0.014018689
0003d0 2b ca 84 bd 6e 50 92 3d 70 d9 3f 3d fb 52 8f bd
       -0.06483873 0.07144247 0.046838224 -0.06998249
0003e0 7f b0 1c bd 30 df 45 bd 02 92 b0 bd b0 99 3b bd
       -0.038254257 -0.04830855 -0.08621599 -0.045800865
0003f0 72 26 56 3d d4 bf 4f 3d 62 4f 8e bd cb db 38 3d
       0.052282758 0.05072005 -0.06948735 0.045131486

fc.0.bias f4 [128]
000000 03 90 7e 3d 95 69 85 3c cd d9 5a bb b0 82 b5 bb
       0.06214906 0.016285697 -0.003339398 -0.005539261
000010 58 ff 80 3c 34 9f 9b 3d 91 03 6c bc 05 ad 99 bd
       0.015746757 0.07598725 -0.014405147 -0.07503704
000020 42 71 09 3c 6a 17 99 3c f3 e8 3b 3d 9e 14 3a bd
       0.008388819 0.018687923 0.045876455 -0.04542982
000030 48 13 8d bd fc c4 2c 3d 9b dd 7e bd 0f d7 12 bd
       -0.06888443 0.042180046 -0.06222306 -0.035849627
000040 42 a8 ac 3c eb c8 8b 3d f5 cc 73 bd fc d2 32 bc
       0.021076325 0.068254314 -0.059521634 -0.01091456
000050 c1 c7 a7 3d 33 f0 9a 3d 30 b3 60 bd fd f4 31 3d
       0.08192397 0.075653456 -0.054858387 0.04344653
000060 a3 1a c5 3c f0 8f 05 3d 08 6c af bc 0e 7c 93 3d
       0.024060553 0.032607973 -0.021413818 0.07201396
000070 30 63 79 3c 8b ff c0 bc 0c ee 2b ba 54 f7 82 bd
       0.015221402 -0.023559352 -0.0006558604 -0.0639483
000080 15 a8 06 bd 18 6c 3d 3b 88 93 e4 bc bd 84 7d 3d
       -0.03287514 0.002890354 -0.02790238 0.061894167
000090 f9 5a af 3d f4 94 a8 bd 1d 4a 92 bc 4c 9f 4b bc
       0.085622735 -0.082315356 -0.017857606 -0.012428116
0000a0 ec 6a e0 3a c8 87 67 bd 50 9b b4 bd 77 44 d5 3b
       0.0017121709 -0.056525975 -0.08818686 0.006508406
0000b0 1b e5 31 3d 74 05 b8 3c c0 1c 48 bc 85 f6 9a bd
       0.043431383 0.022463538 -0.012213886 -0.07566551
0000c0 1f b3 97 3d 4d b0 ba 3b ae ac 3e bc ba fd dc 3c
       0.074072115 0.005697286 -0.01163785 0.026976455
0000d0 ff 8f 42 3d 99 6d 69 bc 76 33 07 bd c7 61 43 bd
       0.047500607 -0.0142473215 -0.03300806 -0.04770067
0000e0 f3 44 96 bd 57 e1 9a bb ac 40 a6 bc 5b 6d aa 3c
       -0.0733737 -0.0047265696 -0.02029451 0.020804098
0000f0 6e eb b9 b9 27 f5 31 3d f3 f5 90 3d 94 7e 9f bd
       -0.00035461358 0.043446686 0.07078161 -0.07787815
000100 18 6d 43 bb f7 8d b1 3c 8f 91 9e 3d 7e 15 17 bc
       -0.0029819664 0.02167414 0.07742607 -0.009221433
000110 12 c5 84 bd 10 4f 41 bd 85 18 e8 bc f0 06 4d 3d
       -0.06482901 -0.04719454 -0.028332004 0.050055444
000120 74 88 20 bb b8 fc a8 bd 34 e3 35 3d 2b d6 47 bd
       -0.0024495395 -0.08251327 0.04440613 -0.04878823
000130 d3 15 6f bd 02 49 af bd ba b5 af 3d c7 6a eb bb
       -0.058370423 -0.08558847 0.085795835 -0.0071843597
000140 6d 54 ad 3c 2b 17 b3 bd 9f c9 7f 3d de a1 85 bd
       0.021158421 -0.08744653 0.06244814 -0.06525014
000150 3c 71 a9 3d e6 95 2c bd 64 1b aa 3d dc bf 97 3d
       0.08273551 -0.04213514 0.083060056 0.07409641
000160 c2 e6 0d bd 1a 89 da 3c 1e 26 43 3c c6 3a a6 bd
       -0.034643896 0.026676703 0.011910943 -0.08116679
000170 dd b5 2f bd d1 fa 74 3d 4f a6 a3 3d f3 81 2d 3c
       -0.042898048 0.05980951 0.07990705 0.010590064
000180 23 64 4c bd 69 23 a8 3d 5b 45 87 3d 9b 1a 18 3d
       -0.049900185 0.08209879 0.066050254 0.037134748
000190 85 3f 96 3d 6b 58 70 bd 0c e8 9a bc 79 67 e1 bc
       0.07336334 -0.058678072 -0.018909477 -0.02751516
0001a0 4b a9 95 bd d7 ec 21 bd 0a 8c 49 bc 01 fa 56 3d
       -0.07307681 -0.03953251 -0.012301454 0.052484516
0001b0 cf 38 8d 3c bb c7 6f 3c cf 8d 16 3c d9 42 bf 3c
       0.017239003 0.014635022 0.009189083 0.023347305
0001c0 1f 87 80 3c b5 70 47 3d 80 d3 9b bd fe 90 a5 3a
       0.01568943 0.04869147 -0.076087 0.0012631712
0001d0 de 5d 91 3d c0 06 97 3d d3 28 42 3d d6 38 59 3b
       0.07097982 0.07374334 0.047402214 0.003314545
0001e0 a0 65 a9 bd c2 b9 87 bd ff 4c cc 3c 71 63 98 bc
       -0.082713366 -0.06627227 0.024939058 -0.018602105
0001f0 55 9c c0 bc 58 f9 38 bd a2 48 d0 bb 63 41 11 3c
       -0.023512045 -0.045159668 -0.0063563148 0.008865687

fc.2.weight f4 [1, 128]
000000 5e 30 dd bb 97 58 4b bd 9a 1b 7d 3d 51 df cb 3c
       -0.0067501506 -0.049645033 0.0617939 0.024886759
000010 dc ee 2f bd f6 fc 87 3d fa 6c 75 3d e5 cc ac 3d
       -0.042952403 0.06640045 0.05991838 0.08437518
000020 60 da ac 3d 0b 50 66 3d 39 03 7a 3d 81 b4 cb bc
       0.08440089 0.05622868 0.06103823 -0.024866344
000030 30 38 36 bc f5 2f b0 bc f6 b2 02 bd 8d 59 70 bd
       -0.011121795 -0.021507243 -0.03190895 -0.058679152
000040 a2 df 50 bc 97 c1 a6 bd 32 31 44 3d b8 01 0d bc
       -0.012748631 -0.08142393 0.04789848 -0.008606367
000050 1c 5d a9 bd 96 62 90 bd a7 46 cb bc 79 7e c3 3c
       -0.08269712 -0.07050054 -0.024813963 0.023864018
000060 ae 41 16 bd 97 fd 13 bc 70 52 70 bb f5 c8 9a bd
       -0.03668373 -0.0090326285 -0.003667023 -0.07557861
000070 79 21 ac bd 84 38 54 3c 63 27 ac 3d 8c 61 17 3d
       -0.08404822 0.0129529275 0.0840595 0.036958262
000080 a7 07 37 3d e6 50 0c bd de 99 ee 3c a1 b0 c4 bc
       0.044685032 -0.03425684 0.029126104 -0.024010004
000090 a6 e8 f1 bc 76 d4 79 bd e8 e9 a2 bd 61 4b e3 bc
       -0.02952988 -0.060993634 -0.0795477 -0.027745904
0000a0 e1 c7 99 bd 0c 32 a6 bc 68 a5 b0 3c 6f 68 a2 3d
       -0.07508827 -0.020287536 0.021563247 0.079300754
0000b0 f0 9a 42 bd 7f cb 81 3c 62 b3 8c 3d 3b 81 a7 bd
       -0.04751104 0.015844105 0.06870152 -0.08178946
0000c0 73 bf 67 bd ec 8e 91 bd 0b c6 4b 3c e0 f3 87 3c
       -0.056579065 -0.07107338 0.012437354 0.01659578
0000d0 ad 05 a2 bd fd fc 9b bd 12 8f 0d bb ec df 62 bd
       -0.07911239 -0.07616613 -0.002160017 -0.05538933
0000e0 e0 d6 ca bc 9c 77 24 bd 1e 31 3f bd f5 e9 fd ba
       -0.024760664 -0.04015313 -0.0466777 -0.0019372093
0000f0 bc 0a bc bc 98 17 13 3d 2d cc c2 bc 5a d6 9e 3d
       -0.022954337 0.035911173 -0.023779 0.07755728
000100 11 f8 96 bd a3 84 9a 3d 0a 58 eb 39 27 9e 8a 3d
       -0.07371534 0.0754483 0.00044888287 0.067684464
000110 67 62 4a 3d 3f bc 5c 3d 72 27 b9 3c 26 c0 bd 3b
       0.04941025 0.053890463 0.022601817 0.005790728
000120 05 19 77 3c 38 df b3 bd 51 73 5a 3d b2 71 08 3d
       0.015081649 -0.0878281 0.05333263 0.033311553
000130 3b 8e 45 3b 7f d9 81 3d 48 fe c0 bd ed 6b a1 bd
       0.003014459 0.06340312 -0.094235 -0.07881913
000140 1e 57 ac 3c c9 73 9d 3d 08 73 a4 bd c2 f1 e1 3c
       0.021037634 0.076881 -0.08029753 0.0275811
000150 dd cf 91 bd ab 5e b1 bd 5d 92 81 3c c3 78 77 3d
       -0.07119725 -0.086606346 0.015816862 0.0604179
000160 82 b6 18 bd 71 0a b3 bc 18 9a 92 3d 63 63 fd 3b
       -0.037283428 -0.021855565 0.07158297 0.007732795
000170 bc 42 b1 bd 78 bb 91 3d f1 b6 f7 3c 59 d9 fc 3c
       -0.08655307 0.07115835 0.0302386 0.030865358
000180 20 1f a6 3d b0 e5 09 3b d5 52 42 bd ab 4f 85 3c
       0.081114054 0.0021041445 -0.047442276 0.01627334
000190 31 cd 07 3d ae 02 a3 bd 58 38 13 3c 89 55 b4 3c
       0.03315467 -0.079594955 0.008985601 0.022013443
0001a0 00 49 9c 3c ef 5f e1 3b 57 6c 79 bd 45 b7 93 3c
       0.019077778 0.0068778913 -0.060894337 0.018031726
0001b0 7c 16 30 bd 4d 52 9a bd 05 49 b8 3c 04 b7 3f bd
       -0.042990193 -0.07535229 0.022495756 -0.046805397
0001c0 d1 a7 35 3c 31 65 bb bd 16 80 9f 3d df ee 57 bd
       0.011087374 -0.0915016 0.07788102 -0.05271804
0001d0 f8 83 fb 3c 01 e3 1f bd e4 91 a2 bd 53 3d 9a 3d
       0.030702576 -0.039034847 -0.07937983 0.07531228
0001e0 f2 e4 59 3d 05 18 a5 bc 1b 56 dd bc 67 aa 92 bc
       0.053196855 -0.020153055 -0.027018597 -0.01790352
0001f0 23 ab 86 3c 52 ae 9a 3d 48 1d c2 3c 89 9c 14 bd
       0.016439026 0.0755278 0.023695603 -0.036282096
