models/LSTM_progress_2_15_25.pth (torch, 367804 bytes, 7 tensors)

lstm.weight_ih_l0 f4 [512, 15]
0.03820857 0.014818613 0.020417083 0.08073747 -0.028117428 0.032588527 0.01378073 -0.040423032
-0.029993543 0.007681357 0.026105324 -0.009643411 -0.015874438 0.07767777 -0.08727339 -0.03851126
-0.08250066 0.038162794 0.03462062 -0.045333885 0.03484412 0.034237027 -0.010344927 -0.005681097
-0.04230227 -0.051358275 -0.05160259 0.0875883 -0.080404535 0.05400631 0.051098358 -0.0069205533
0.038070843 0.040729843 0.054476675 0.048587136 0.042084232 0.01548472 0.011878812 -0.003998568
-0.04804758 0.044352826 -0.024204547 -0.06982195 0.01646759 0.08129926 -0.07708012 0.02342662
0.01360099 -0.043209437 -0.03077089 -0.049803987 0.007683409 0.020223482 0.03201031 -0.023888428
0.03874715 0.029769678 0.03816628 -0.06514831 0.06636392 0.07956086 0.02098055 0.055559758
0.016922183 0.09118687 -0.024998141 -0.023628289 -0.078495696 0.030856797 -0.020022066 -0.0546903
-0.028492244 0.001948439 0.02313965 0.0025742853 -0.033574034 -0.045075964 -0.0030500845 0.01721779
-0.07142997 -0.06730943 -0.009037785 -0.080258526 0.03990842 0.062049057 -0.021691669 -0.080317244
-0.026794491 0.052407853 0.049953196 0.040974446 0.04465702 -0.028498812 -0.086765066 -0.023557944
0.013611457 0.011085173 0.04117107 0.01023748 0.007297911 -0.07767989 0.013492346 -0.033156913
0.033203807 -0.07709251 -0.06587621 0.011660855 0.046974562 0.04478077 0.066183046 0.047120586
-0.03514472 0.05378268 0.051003154 -0.049778335 -0.02588905 -0.018877143 -0.060319874 -0.0028101099
-0.016241936 0.040304866 0.07029262 -0.06910026 0.06749864 -0.040288907 0.08582024 -0.08033416
-0.085491635 -0.04792397 0.056749556 0.07195606 -0.04064214 -0.06963125 0.064959034 0.03221098
-0.009476835 -0.07279073 -0.05086423 -0.050200533 -0.042282704 0.073146835 -0.012185751 0.04049899
-0.0708785 0.062180348 0.020922726 0.06525105 -0.047073696 -0.08921107 -0.040091522 -0.08268216
0.05506361 0.048135076 0.011734726 0.041208226 -0.027178196 0.034821536 0.025359005 -0.067133434
-0.016242448 -0.032275457 0.00948948 0.057576623 0.00662696 -0.050589167 -0.07780316 -0.0014236211
0.04332871 0.044152506 0.0021563799 0.03076107 -0.06292712 0.084132925 0.03632158 -0.03739589
0.022307364 -0.048012972 -0.029621644 0.02564371 -0.003183527 -0.013674681 -0.07786011 0.07313949
0.078573726 -0.09012042 -0.039181765 0.0010835548 -0.08185173 0.003287419 0.075929224 -0.079857826
0.067603454 0.04307972 0.006218741 0.030409748 -0.07648213 0.07510563 0.034823895 0.02185133
-0.01285405 0.07315582 0.016393075 -0.04619724 0.08576373 0.024664167 0.03490221 -0.017721638
-0.08512767 0.041862737 0.07526969 -0.045257185 -0.032152142 0.027246116 -0.07294208 -0.028416246
0.028497696 0.04666028 0.01773543 0.07467725 0.006186753 0.05975165 -0.020090528 0.0028649364
-0.032561246 -0.082202874 -0.030107666 0.05627515 -0.0873823 -0.06603888 0.057472985 -0.061135717
-0.0004889149 -0.021009263 -0.0031821441 0.014263741 0.00064271706 -0.0023312015 0.06443842 0.0025289292
-0.06137581 0.02313237 -0.08737485 0.08513975 0.003551941 0.07241304 0.031875614 -0.039640974
0.073957324 -0.065026164 -0.05822446 0.077958494 0.03450398 -0.040138893 0.021522023 0.07313258
00000000: 9780 1c3d c5c9 723c ba41 a73c b059 a53d
00000010: 8556 e6bc 8c7b 053d 92c8 613c 9f92 25bd
00000020: 05b5 f5bc e5b3 fb3b d5da d53c 66ff 1dbc
00000030: 1c0b 82bc 8615 9f3d 64bc b2bd fcbd 1dbd
00000040: 1bf6 a8bd 9750 1c3d 5ace 0d3d 06b0 39bd
00000050: b5b8 0e3d 203c 0c3d c57d 29bc 7f28 babb
00000060: 2545 2dbd 0e5d 52bd 3d5d 53bd 7f61 b33d
00000070: 22ab a4bd b835 5d3d 834c 513d cfc5 e2bb
00000080: 2cf0 1b3d 56d4 263d ef22 5f3d 4e03 473d
00000090: 8460 2c3d 9fb3 7d3c 599f 423c 6b06 83bb
000000a0: 8acd 44bd 4fab 353d 9d48 c6bc cffe 8ebd
000000b0: 0ae7 863c 3a80 a63d 2fdc 9dbd 2fe9 bf3c
000000c0: b0d6 5e3c 61fc 30bd 3c13 fcbc 44ff 4bbd
000000d0: 1bc5 fb3b b7ab a53c 3e1d 033d aab1 c3bc
000000e0: 55b5 1e3d 8adf f33c 3f54 1c3d 7a6c 85bd
000000f0: cfe9 873d cef0 a23d 67df ab3c a192 633d
00000100: 64a0 8a3c 2fc0 ba3d e7c8 ccbc 1d90 c1bc
00000110: 5ac2 a0bd 65c7 fc3c 5105 a4bc f002 60bd
00000120: 9168 e9bc c462 ff3a 5d8f bd3c 57b5 283b
00000130: ed84 09bd 93a1 38bd ede3 47bb 530c 8d3c
00000140: e049 92bd 87d9 89bd 3813 14bc 955e a4bd
00000150: 0377 233d 2727 7e3d bab2 b1bc 5e7d a4bd
00000160: 1f80 dbbc 9ea9 563d b99b 4c3d d2d4 273d
00000170: 48ea 363d 5776 e9bc e2b1 b1bd 97fc c0bc
00000180: 9702 5f3c 969e 353c ffa2 283d 1abb 273c
00000190: 5123 ef3b a216 9fbd 000f 5d3c 8bcf 07bd
000001a0: b700 083d aee2 9dbd 1bea 86bd 2c0d 3f3c
000001b0: 6668 403d 0a6c 373d fa8a 873d 8401 413d
000001c0: e9f3 0fbd 3a4b 5c3d afe8 503d 5ee4 4bbd
000001d0: 4615 d4bc 3da4 9abc f911 77bd d229 38bb
000001e0: cf0d 85bc b716 253d 94f5 8f3d 7084 8dbd
000001f0: ba3c 8a3d fb05 25bd 86c2 af3d 3c86 a4bd
00000200: 3d16 afbd ed4b 44bd 3972 683d b35d 933d
00000210: 5f78 26bd d49a 8ebd 3e09 853d a9ef 033d
00000220: ba44 1bbc 4e13 95bd 0357 50bd 139f 4dbd
00000230: a130 2dbd 02ce 953d bfa6 47bc 45e2 253d
00000240: bf28 91bd d2b0 7e3d 2366 ab3c 58a2 853d
00000250: 59d0 40bd 4bb4 b6bd 0237 24bd 4455 a9bd
00000260: 618a 613d 4929 453d 0243 403c f5c9 283d
00000270: cfa4 debc 07a1 0e3d b0bd cf3c 417d 89bd
00000280: e20e 85bc 4533 04bd c479 1b3c 77d5 6b3d
00000290: f826 d93b 9636 4fbd 4357 9fbd cc98 baba
000002a0: 7279 313d 42d9 343d 0d52 0d3b a4fe fb3c
000002b0: efdf 80bd e24d ac3d f0c5 143d 6f2c 19bd
000002c0: efbd b63c 40a9 44bd 17a9 f2bc c212 d23c
000002d0: b8a2 50bb c50b 60bc 1f75 9fbd 28ca 953d
000002e0: 43eb a03d 0e91 b8bd 0f7d 20bd 1106 8e3a
000002f0: e1a1 a7bd bd71 573b c880 9b3d 808c a3bd
00000300: ae73 8a3d 5c74 303d 95c6 cb3b dd1d f93c
00000310: aaa2 9cbd fbd0 993d 80a3 0e3d 8f01 b33c
00000320: cb99 52bc b8d2 953d c54a 863c 5139 3dbd
00000330: e5a4 af3d 820c ca3c 9ff5 0e3d f82c 91bc
00000340: 6a57 aebd 4378 2b3d ff26 9a3d 995f 39bd
00000350: f7b1 03bd 3f33 df3c a862 95bd 30c9 e8bc
00000360: 0074 e93c da1e 3f3d e449 913c 63f0 983d
00000370: 3fba ca3b 25be 743d e494 a4bc a8c1 3b3b
00000380: f15e 05bd fb59 a8bd 5aa4 f6bc c680 663d
00000390: 7ef5 b2bd 643f 87bd cb68 6b3d 7269 7abd
000003a0: 862a 00ba 9e1b acbc 858b 50bb 77b2 693c
000003b0: 037c 283a 12c7 18bb 4af8 833d 64bc 253b
000003c0: 3465 7bbd 1980 bd3c 96f1 b2bd c05d ae3d
000003d0: aec7 683b 4a4d 943d 0190 023d 935e 22bd
000003e0: f076 973d 702c 85bd c57c 6ebd b4a8 9f3d
000003f0: 0c54 0d3d ae68 24bd f44e b03c 89c6 953d

lstm.weight_hh_l0 f4 [512, 128]
0.00063690956 -0.078721136 0.0029634312 -0.052663274 0.024403347 0.041031267 -0.018213715 0.07047903
0.06574735 -0.033157993 0.022181323 -0.0347664 0.06449119 -0.019679122 0.06024737 -0.051697675
-0.023808667 -0.04145305 0.07301672 0.0068765692 0.048604514 0.022039294 -0.009142447 -0.055465657
-0.075479664 -0.002114285 -0.028223163 -0.08720055 -0.06268387 -0.05250897 -0.029970227 -0.06670872
-0.015464125 0.08016771 0.05001926 -0.06670548 0.054050956 0.025363708 0.08770023 -0.055191565
-0.014002676 -0.07047447 -0.08358375 -0.062067464 -0.06732111 0.058027744 0.006127211 -0.059446275
-0.010385621 0.0061421585 -0.036604006 -0.034404255 -0.00957432 -0.061003074 0.023811439 -0.0002954382
-0.050512925 -0.059217576 -0.0546118 -0.030862415 0.0021596893 0.05542132 0.022874573 0.050116934
-0.0035795278 -0.01123326 -0.021457894 0.012405708 0.049403414 -0.014265986 0.038229026 -0.07457745
0.006712009 0.06892802 0.051274072 0.03165907 -0.05623643 -0.02152898 0.03810506 0.05162076
0.042235233 0.076975845 0.008968605 0.07404755 -0.018444618 -0.06961762 0.05737769 -0.023736974
0.075982675 0.086949185 -0.0072805425 0.0657677 -0.038587313 0.0344842 -0.083614446 -0.035695158
0.08538115 -0.053905014 0.0653062 -0.05515844 -0.06398861 -0.076957025 0.051814515 0.038438555
-0.017533649 0.065375574 0.069034554 -0.018739637 0.0103160385 0.017604025 -0.0014232122 0.015365148
0.03498935 -0.018968368 0.058593247 0.0825155 0.028403666 0.05033232 -0.014102166 0.000949967
0.06045931 0.06691128 0.081497416 -0.057974145 0.037712898 -0.0017280687 0.043915354 -0.06486507
-0.018938608 -0.04886293 -0.055240285 -0.07649205 0.07055059 -0.0006832257 0.05569541 -0.0015731639
0.011666269 0.015862912 -0.06769826 -0.024393009 -0.06944349 0.0749839 -0.05871065 -0.018857684
-0.009179952 -0.02936616 0.08588655 -0.07122611 -0.015791073 -0.046344094 -0.07632993 0.083602935
-0.0011039185 0.026462665 0.029946808 -0.03113828 0.0022195322 0.04182394 0.067387186 0.0009497913
-0.026452927 0.020585569 0.05150051 0.08575915 -0.08259327 0.012926444 -0.06450968 -0.041803643
-0.022953937 0.082697235 0.03605297 0.008752511 -0.022972165 0.04966302 -0.06691295 -0.051732324
0.015443726 -0.039894782 0.00501453 -0.04965704 0.031536024 -0.025986463 -0.080882415 -0.061820805
-0.019088233 -0.0031898995 -0.07926041 0.036897358 -0.08325885 0.08147345 -0.009884064 -0.07158871
-0.0013379281 0.03242847 -0.020701505 0.037992258 0.062401365 0.08140741 0.046606567 0.0041891667
-0.07097331 0.01763082 0.031192912 0.06974225 -0.05785387 0.031151965 0.05271906 -0.0020220329
-0.03268057 -0.057560246 -0.041222814 -0.00774709 0.036575872 -0.021017672 0.08717011 0.007737962
-0.08804309 0.039689805 0.035301976 0.040933177 -0.019924603 -0.05279113 -0.0025630114 -0.08562498
-0.07135596 -0.022792278 0.040070504 0.011154871 0.023435108 -0.06886393 -0.0013102008 0.027610505
-0.018257117 -0.013505358 -0.07737328 0.010182831 -0.061091125 -0.07685857 -0.01765416 -0.08402763
-0.077527925 0.015985783 -0.023531187 0.012008428 -0.06960409 0.06042375 0.04102742 0.07458997
-0.075506456 0.021880513 0.061116852 0.030360768 0.030383233 0.013323144 -0.025441878 -0.0029790408
00000000: 47f6 263a 8c38 a1bd 2036 423b 72b5 57bd
00000010: 87e9 c73c 6710 283d ee34 95bc 4f57 903d
00000020: 8ca6 863d add0 07bd 9bb5 b53c 3667 0ebd
00000030: f513 843d 1c36 a1bc f2c5 763d f1c0 53bd
00000040: 650a c3bc acca 29bd ca89 953d d854 e13b
00000050: 8715 473d c08b b43c 34ca 15bc f52f 63bd
00000060: 1595 9abd d18f 0abb 4334 e7bc 3496 b2bd
00000070: 6760 80bd a513 57bd 1f84 f5bc 959e 88bd
00000080: 3e5d 7dbc f82e a43d ffe0 4c3d e29c 88bd
00000090: 8964 5d3d 8dc7 cf3c 2e9c b33d 8d10 62bd
000000a0: 7b6b 65bc eb54 90bd f52d abbd 743a 7ebd
000000b0: a6df 89bd 80ae 6d3d c5c6 c83b f07d 73bd
000000c0: 7428 2abc 2944 c93b 15ee 15bd 7aeb 0cbd
000000d0: 9cdd 1cbc 5cde 79bd 3510 c33c 0be5 9ab9
000000e0: a4e6 4ebd 218e 72bd 9fb0 5fbd 2dd3 fcbc
000000f0: 9389 0d3b 7701 633d 7563 bb3c 6a47 4d3d
00000100: 8396 6abb b50b 38bc 77c8 afbc 5041 4b3c
00000110: 3c5b 4a3d e2bb 69bc 0a96 1c3d 10bc 98bd
00000120: 6af0 db3b 222a 8d3d c304 523d f1ac 013d
00000130: 2c58 66bd 8b5d b0bc 0d14 1c3d 4a70 533d
00000140: dafe 2c3d 83a5 9d3d 0ef1 123c 3ea6 973d
00000150: 2b19 97bc af93 8ebd de04 6b3d 0b74 c2bc
00000160: ce9c 9b3d 6a12 b23d 9e91 eebb 37b1 863d
00000170: bb0d 1ebd 4e3f 0d3d 0d3e abbd 1635 12bd
00000180: 50dc ae3d 81cb 5cbd 42bf 853d d1ed 61bd
00000190: 760c 83bd a59b 9dbd 753b 543d bf71 1d3d
000001a0: baa2 8fbc a1e3 853d fd61 8d3d de83 99bc
000001b0: 9a04 293c 5136 903c 148b baba 1abe 7b3c
000001c0: fe50 0f3d 8d63 9bbc 79ff 6f3d e3fd a83d
000001d0: ceae e83c 4329 4e3d c50c 67bc 3507 793a
000001e0: 2ea4 773d c808 893d 1ee8 a63d 4c76 6dbd
000001f0: d778 1a3d 5d80 e2ba 96e0 333d fad7 84bd
00000200: 2425 9bbc 7f24 48bd a343 62bd dda7 9cbd
00000210: d47c 903d 801a 33ba df20 643d 9f32 ceba
00000220: e123 3f3c f0f2 813c 63a5 8abd d9d3 c7bc
00000230: 6338 8ebd 2991 993d 947a 70bd 6e7b 9abc
00000240: 8267 16bc 4d91 f0bc 4ae5 af3d ffde 91bd
00000250: 485c 81bc 4ed3 3dbd de52 9cbd 0438 ab3d
00000260: 5cb1 90ba 3bc8 d83c 0253 f53c b515 ffbc
00000270: 9275 113b 944f 2b3d 4b02 8a3d 6afb 783a
00000280: cfb3 d8bc 11a3 a83c 33f2 523d 7ea2 af3d
00000290: a926 a9bd 70c9 533c a71d 84bd 4c3a 2bbd
000002a0: e509 bcbc 2b5d a93d 47ac 133d b166 0f3c
000002b0: 1f30 bcbc 736b 4b3d a809 89bd 46e5 53bd
000002c0: af07 7d3c b668 23bd ed50 a43b 2e65 4bbd
000002d0: eb2b 013d 90e1 d4bc aea5 a5bd d037 7dbd
000002e0: ed5e 9cbc a20d 51bb 4853 a2bd af21 173d
000002f0: 9e83 aabd 8ddb a63d c5f0 21bc 1a9d 92bd
00000300: 6b5d afba b7d3 043d 3496 a9bc c59d 1b3d
00000310: 9398 7f3d eeb8 a63d 87e6 3e3d 4745 893b
00000320: 745a 91bd 826e 903c 4788 ff3c 06d5 8e3d
00000330: 2ef8 6cbd 6832 ff3c f1ef 573d 1584 04bb
00000340: 10dc 05bd 4bc4 6bbd 41d9 28bd 4ddb fdbb
00000350: 95d0 153d 412d acbc 3e86 b23d bb8e fd3b
00000360: f04f b4bd c791 223d ce98 103d 8ca9 273d
00000370: ec38 a3bc 833b 58bd 32f8 27bb 265c afbd
00000380: 1323 92bd dfb6 babc f820 243d ecc2 363c
00000390: fcfa bf3c 8808 8dbd 0bbb abba 6d2f e23c
000003a0: f38f 95bc 9445 5dbc e275 9ebd e4d5 263c
000003b0: b03a 7abd 0768 9dbd 759f 90bc ae16 acbd
000003c0: f6c6 9ebd 9ef4 823c 7ac4 c0bc ffbe 443c
000003d0: 978c 8ebd e57e 773d 5e0c 283d a0c2 983d
000003e0: 21a3 9abd c33e b33c aa55 7a3d 25b7 f83c
000003f0: 42e6 f83c 5149 5a3c 7c6b d0bc 033c 43bb

lstm.bias_ih_l0 f4 [512]
-0.0034902608 0.052622706 0.07872226 -0.0052784625 0.056834996 0.008011712 -0.06583135 0.0018162593
-0.08280823 -0.014904579 -0.0020284392 0.03631302 -0.0116443215 0.083369166 0.07242143 0.05736399
0.014650218 -0.071685106 0.044303276 0.07414027 0.048134167 0.051373087 -0.06704495 -0.007601476
0.055009674 -0.04660014 0.061332557 0.062057666 0.06664307 -0.009288783 -0.05347863 -0.017575726
-0.04196267 -0.0073285624 -0.053703 0.08066453 -0.017870838 0.057211485 -0.029861992 -0.052477054
0.044461273 0.07593547 0.028589983 -0.08440901 0.05678307 0.08425985 -0.017628781 -0.08490461
-0.008041322 -0.060021404 -0.016343262 0.03340409 0.08791352 0.056879077 0.0025900747 -0.08637958
0.01711608 -0.03833228 -0.045773648 0.066609375 -0.071186684 -0.03778767 -0.08503469 0.07712528
-0.037851658 -0.03292979 0.07767251 -0.07459141 0.01662106 0.028033692 0.017238824 0.020190036
-0.014560327 0.02819295 0.041238047 -0.019231984 0.041476566 0.049120024 -0.0604962 -0.054684345
-0.07742591 -0.040582888 -0.07985879 -0.051632572 0.08847475 0.08508494 0.03228118 0.055288885
0.038808204 -0.002014637 0.08560511 0.032859713 -0.013310011 -0.08225786 -0.054434318 -0.032475248
-0.08799162 -0.039659537 -0.072125725 0.016426884 -0.047006477 -0.011409086 0.080705814 -0.01857455
0.077738605 0.024596667 -0.037105165 0.08105123 -0.027344948 0.014563827 0.0047044097 -0.06592314
-0.0025064123 0.0022309779 -0.022986293 0.012668458 0.06080112 0.08725999 -0.068539545 0.061674137
0.0049722604 -0.034671854 -0.052199624 -0.085643575 -0.0022315516 -0.069330685 -0.017774956 0.079651915
-0.018037321 0.004786518 -0.058843814 0.063037574 0.036751613 -0.08042576 0.0064080837 -0.08748254
0.06937691 -0.0267491 -0.05460608 -0.047309935 -0.028759783 0.004632321 -0.041751318 -0.0044496516
0.0132831875 0.08825136 0.049451515 -0.04770156 -0.01576179 -0.012642257 0.001800164 0.01550737
-0.038414333 0.0677762 0.054917447 -0.06665769 0.077784345 -0.007588175 -0.044967923 -0.077453844
-0.028125191 0.074612565 -0.04955245 -0.032002818 -0.002693798 -0.071473695 -0.07527262 0.07351909
-0.011071021 -0.030014928 0.036680367 -0.0043591755 -0.037320476 -0.03776972 -0.036728006 -0.035402674
-0.06344686 0.05526669 -0.076077454 0.05006645 -0.03398356 -0.007112771 0.03720395 -0.058605425
-0.040238515 -0.008583345 0.016536428 -0.0057131816 0.0018010882 0.03717183 -0.07648871 -0.010066708
0.08382877 0.026704136 0.02379123 -0.08685062 0.027825218 -0.004789573 0.082564965 -0.077679835
-0.06650226 0.08540966 0.038560793 0.02262531 0.021090208 -0.040020727 0.025292428 -0.014852027
0.039269023 -0.00772383 -0.0058539 -0.06729188 0.031413686 -0.0018125805 0.008376703 -0.050370272
-0.0768432 0.07412866 -0.0142131075 0.043721087 0.019497272 0.048661333 0.021999348 -0.015240404
0.035096996 -0.017098123 0.032099754 -0.020575969 0.06982987 0.00045652702 0.018415004 0.07173088
0.06630917 0.021180673 -0.06149911 -0.017391419 0.053136185 -0.019680312 0.053430483 0.018352035
-0.0297301 -0.007095327 -0.053726032 0.07678648 -0.069322355 0.024694953 0.014488403 0.012301672
-0.0002979886 0.00038288868 -0.07347777 0.020480445 0.025502034 -0.07983428 -0.05742859 0.083199516
00000000: dcbc 64bb e88a 573d 2339 a13d f4f6 acbb
00000010: d0cb 683d 8e43 033c 96d2 86bd 8d0f ee3a
00000020: 5c97 a9bd 5632 74bc 90ef 04bb f6bc 143d
00000030: d3c7 3ebc 74bd aa3d b051 943d 81f6 6a3d
00000040: 7807 703c a4cf 92bd 5a77 353d dbd6 973d
00000050: 5528 453d 966c 523d dd4e 89bd cd15 f9bb
00000060: d351 613d cadf 3ebd d937 7b3d 2e30 7e3d
00000070: 297c 883d fb2f 18bc 680c 5bbd f8fa 8fbc
00000080: 0ce1 2bbd 7024 f0bb adf7 5bbd 7233 a53d
00000090: dd65 92bc 9756 6a3d 23a1 f4bc 2ef2 56bd
000000a0: 061d 363d 0e84 9b3d 8a35 ea3c a2de acbd
000000b0: 5d95 683d 6e90 ac3d 3c6a 90bc 78e2 adbd
000000c0: c0bf 03bc 01d9 75bd 4ee2 85bc bad2 083d
000000d0: 010c b43d 09fa 683d 3ebe 293b c7e7 b0bd
000000e0: 0537 8c3c 4f02 1dbd 267d 3bbd 7f6a 883d
000000f0: 53ca 91bd 3ec7 1abd ab26 aebd dcf3 9d3d
00000100: 570a 1bbd 63e1 06bd c412 9f3d 62c3 98bd
00000110: e428 883c eaa6 e53c 6f38 8d3c 9365 a53c
00000120: 708e 6ebc e7f4 e63c 3ae9 283d 658c 9dbc
00000130: 55e3 293d 1432 493d ddca 77bd b1fc 5fbd
00000140: 7a91 9ebd 3e3a 26bd 018d a3bd ad7c 53bd
00000150: 4032 b53d 0341 ae3d 4539 043d 9976 623d
00000160: 5af5 1e3d 0008 04bb bb51 af3d e897 063d
00000170: 3b12 5abc cf76 a8bd 85f6 5ebd c404 05bd
00000180: f334 b4bd 0a72 22bd a7b6 93bd ac91 863c
00000190: dd89 40bd 2ded 3abc 1749 a53d a829 98bc
000001a0: 6b35 9f3d f37e c93c 96fb 17bd 30fe a53d
000001b0: 8302 e0bc 1e9d 6e3c 7327 9a3b b602 87bd
000001c0: 9f42 24bb 9935 123b c04d bcbc 5d8f 4f3c
000001d0: 980a 793d 5eb5 b23d 765e 8cbd 059e 7c3d
000001e0: 58ee a23b 1304 0ebd 46cf 55bd e665 afbd
000001f0: 393f 12bb 3ffd 8dbd c99c 91bc 8b20 a33d
00000200: 01c3 93bc 39d8 9c3b 3606 71bd d819 813d
00000210: dc88 163d 43b6 a4bd e7fa d13b 0c2a b3bd
00000220: 7b15 8e3d ee20 dbbc a0aa 5fbd 10c8 41bd
00000230: a399 ebbc baca 973b 6e03 2bbd 62ce 91bb
00000240: baa1 593c 21bd b43d ac8d 4a3d b662 43bd
00000250: df1e 81bc 7821 4fbc 7bf3 eb3a a012 7e3c
00000260: 5958 1dbd 40ce 8a3d 1ef1 603d d483 88bd
00000270: 664d 9f3d 3aa6 f8bb 4930 38bd 1fa0 9ebd
00000280: cd66 e6bc 79ce 983d 83f7 4abd 6315 03bd
00000290: 6e8a 30bb cd60 92bd 8828 9abd 2d91 963d
000002a0: 3a63 35bc dee1 f5bc 273e 163d 6ad7 8ebb
000002b0: 5bdd 18bd 6cb4 1abd 1b70 16bd 6502 11bd
000002c0: 6df0 81bd 535f 623d 7fce 9bbd 7a12 4d3d
000002d0: 5832 0bbd 3f12 e9bb 2b63 183d 3e0c 70bd
000002e0: 24d1 24bd 29a1 0cbc 6777 873c a435 bbbb
000002f0: 7e12 ec3a 7d41 183d 1da6 9cbd d5ee 24bc
00000300: 6bae ab3d a2c2 da3c d3e5 c23c bdde b1bd
00000310: b6f1 e33c daf1 9cbb d217 a93d 9b16 9fbd
00000320: 5632 88bd 43eb ae3d ecf1 1d3d b758 b93c
00000330: 5fc5 ac3c c6ec 23bd 1132 cf3c eb55 73bc
00000340: 8ed8 203d 2f18 fdbb 13d2 bfbb 53d0 89bd
00000350: a3ab 003d 1c94 edba 703e 093c 0f51 4ebd
00000360: f85f 9dbd c4d0 973d 18de 68bc e214 333d
00000370: beb8 9f3c 1b51 473d fa37 b43c e3b2 79bc
00000380: dec1 0f3d 5d11 8cbc 087b 033d ef8e a8bc
00000390: f602 8f3d 055a ef39 10db 963c a4e7 923d
000003a0: 1acd 873d 1783 ad3c 7ee6 7bbd 7378 8ebc
000003b0: 54a5 593d 9b38 a1bc ecd9 5a3d 0257 963c
000003c0: 8a8c f3bc eb7f e8bb d40f 5cbd 3b42 9d3d
000003d0: e1f8 8dbd 124d ca3c c460 6d3c f48c 493c
000003e0: 5a3b 9cb9 73be c839 837b 96bd 9bc6 a73c
000003f0: a4e9 d03c 2880 a3bd 3e3a 6bbd 8264 aa3d

lstm.bias_hh_l0 f4 [512]
0.009403368 0.057574257 -0.02299951 -0.070735246 0.06710868 -0.03788184 0.009445141 -0.0075388527
-0.078353666 -0.07939126 0.037933227 0.084764354 0.04812113 0.088111445 0.052540228 -0.082365625
-0.06341084 -0.016487047 -0.0054507097 0.039863113 -0.08563914 -0.04211047 -0.023576247 -0.023133984
-0.015837828 0.06772201 -0.07465183 0.061015718 -0.07013449 -0.083069935 -0.023061331 -0.06946889
0.036950655 0.0069559473 -0.026782144 -0.0011244583 -0.0650399 0.07118832 0.012002871 0.023760388
-0.06799918 -0.054064546 0.0055877203 -0.03163442 0.07206911 -0.024604892 -0.05597478 -0.07462677
0.037381522 0.073894456 0.024396677 -0.024442798 -0.029253745 0.024521042 -0.014127408 0.060481448
0.024108144 -0.059858743 0.02386136 0.007367171 0.034058083 0.056123745 -0.0010295366 0.053481527
0.05427204 0.07384591 -0.060327306 0.07652247 0.014874433 -0.040379018 -0.06494097 0.067343086
-0.03661014 0.040516023 0.064041704 0.021011477 0.057825062 0.02215787 0.01753776 -0.06645629
-0.022089092 -0.019688984 0.05362221 0.03232945 -0.0325167 0.040849097 0.0022471438 0.0048222397
0.05787351 -0.08503312 0.05357638 0.06417931 -0.0815074 0.029710837 0.07957554 0.021263007
-0.012769702 0.027314145 0.053499512 -0.013907736 -0.043341566 -0.013880235 0.07575383 0.084962144
0.028886879 0.06721975 0.08042364 -0.018046642 -0.007852385 0.0484997 0.03764843 0.034688815
-0.0672657 0.045262724 -0.044180065 0.028852219 0.088246755 0.0072478764 0.06454327 0.019760795
0.051337495 -0.012772444 0.0887099 -0.010631792 0.07568334 0.017687902 0.039043248 -0.006854415
0.03194347 0.071519345 0.0009249195 -0.022997826 0.078355275 0.044972 -0.04359775 0.0026760027
0.08243897 0.009838446 -0.058963675 0.04002759 -0.05611854 0.07816005 -0.08112753 0.08472402
-0.0005440433 -0.03243199 0.06601428 -0.05476867 0.05140128 0.08609894 0.026039815 0.08462768
0.049646787 -0.082930155 -0.0396659 -0.021073053 -0.04928739 -0.07909967 -0.04725932 0.033081044
-0.06116642 0.0504193 -0.067445725 -0.058179583 0.0013475424 0.043700363 -0.0004717483 -0.04334766
0.052493792 -0.027298577 0.033985842 -0.009609717 -0.042738076 0.06697156 0.07738485 -0.04963591
0.0363896 0.051462706 -0.017161328 0.07256377 0.032444764 0.012266709 -0.07479859 0.0395429
-0.056146685 0.07130503 -0.02599101 0.0026299905 0.006718314 0.048247192 -0.014290162 0.0052700522
0.049798604 0.0094230315 -0.027189294 -0.022958364 -0.08184117 0.0012322557 0.071519256 -7.298355e-05
0.08599735 -0.08747019 0.04795809 -0.07699131 0.009043591 -0.06955227 0.012688181 0.08284776
0.0068908203 -0.035252254 -0.038077872 0.057314977 0.060877766 -0.07364132 0.06009228 -0.031896424
0.059141714 0.0112182675 0.017623385 -0.07946889 0.04893604 0.0063648513 -0.026065927 0.071532905
-0.080074176 0.022516651 -0.0600337 0.033159297 -0.056439072 -0.012348089 -0.022588328 -0.0675671
0.05567401 0.07545179 -0.018476818 -0.06442943 -0.07504575 0.009948179 0.068601795 -0.084233
-0.04150406 0.08333251 -0.06938877 0.013136428 0.0014515636 0.022581939 0.08064005 0.076005116
0.03820402 0.07813904 -0.061914187 0.0035900904 -0.060743406 0.07267194 -0.065337114 0.03907438
00000000: 9610 1a3c fcd2 6b3d 7869 bcbc a4dd 90bd
00000010: 4770 893d fd29 1bbd cbbf 1a3c 7b08 f7bb
00000020: e377 a0bd e397 a2bd df5f 1b3d ef98 ad3d
00000030: a91a 453d c673 b43d 6c34 573d 4faf a8bd
00000040: 8bdd 81bd d80f 87bc de9b b2bb 8147 233d
00000050: 9363 afbd 077c 2cbd f922 c1bc 7b83 bdbc
00000060: 55be 81bc d6b1 8a3d 0fe3 98bd 9eeb 793d
00000070: aca2 8fbd 9220 aabd 1eeb bcbc b545 8ebd
00000080: 9259 173d b7ee e33b 3a66 dbbc 8f62 93ba
00000090: a433 85bd 2fcb 913d b1a7 443c 25a5 c23c
000000a0: 2743 8bbd c972 5dbd 3219 b73b 1893 01bd
000000b0: f898 933d 3390 c9bc d045 65bd ecd5 98bd
000000c0: 5e1d 193d fa55 973d 8adb c73c 433c c8bc
000000d0: 8da5 efbc 5ae0 c83c a576 67bc 65bb 773d
000000e0: 717e c53c 712e 75bd e678 c33c 4f68 f13b
000000f0: 7d80 0b3d 03e2 653d 84f1 86ba 720f 5b3d
00000100: 5c4c 5e3d 863c 973d c419 77bd d0b7 9c3d
00000110: e5b3 733c 7864 25bd c5ff 84bd 2ceb 893d
00000120: 84f4 15bd 21f4 253d 4c28 833d 4320 ac3c
00000130: f9d9 6c3d 6c84 b53c 59ab 8f3c 3c1a 88bd
00000140: 2ff4 b4bc cb4a a1bc f6a2 5b3d e36b 043d
00000150: 3b30 05bd 6251 273d d144 133b e103 9e3b
00000160: c60c 6d3d d825 aebd e872 5b3d 7170 833d
00000170: 5aed a6bd 2464 f33c 80f8 a23d c22f ae3c
00000180: 0338 51bc eac1 df3c 4e22 5b3d 46dd 63bc
00000190: ed86 31bd ed69 63bc d324 9b3d a200 ae3d
000001a0: 2da4 ec3c 82aa 893d 26b5 a43d 8dd6 93bc
000001b0: 4aa7 00bc 9fa7 463d 3d35 1a3d dc15 0e3d
000001c0: 99c2 89bd 6865 393d 28f6 34bd 7d5b ec3c
000001d0: b7ba b43d 987f ed3b 432f 843d 64e1 a13c
000001e0: 4447 523d 8343 51bc 89ad b53d f830 2ebc
000001f0: deff 9a3d 38e6 903c d0eb 1f3d 009b e0bb
00000200: 28d7 023d bc78 923d 4c76 723a f065 bcbc
00000210: bb78 a03d 8f34 383d 8e93 32bd e05f 2f3b
00000220: c3d5 a83d 6f31 213c e583 71bd f8f3 233d
00000230: 8edc 65bd 6012 a03d 3126 a6bd c983 ad3d
00000240: 219e 0eba 68d7 04bd 7f32 873d 1d55 60bd
00000250: 268a 523d a454 b03d 7351 d53c 4751 ad3d
00000260: 6e5a 4b3d 49d7 a9bd b678 22bd 65a1 acbc
00000270: 93e1 49bd 02ff a1bd fd92 41bd fd7f 073d
00000280: a489 7abd 7884 4e3d fc20 8abd b74d 6ebd
00000290: 05a0 b03a 27ff 323d fc54 f7b9 518d 31bd
000002a0: bb03 573d 44a1 dfbc bd34 0b3d 1372 1dbc
000002b0: 1f0e 2fbd 6328 893d f37b 9e3d 064f 4bbd
000002c0: 430d 153d 8fca 523d ea95 8cbc 509c 943d
000002d0: cde4 043d 4efa 483c 0130 99bd bcf7 213d
000002e0: 11fa 65bd 5f08 923d 19eb d4bc eb5b 2c3b
000002f0: 4d25 dc3b d99e 453d 4921 6abc 67b0 ac3b
00000300: 9ff9 4b3d 0f63 1a3c 15bc debc 2e13 bcbc
00000310: 589c a7bd a483 a13a b078 923d bf0e 99b8
00000320: 611f b03d 9223 b3bd b46f 443d 9fad 9dbd
00000330: 922b 143c 6c71 8ebd 17e2 4f3c 16ac a93d
00000340: 64cc e13b ab64 10bd 8bf7 1bbd 1cc3 6a3d
00000350: f75a 793d 43d1 96bd 5323 763d d3a5 02bd
00000360: 953e 723d d3cc 373c eb5e 903c 96c0 a2bd
00000370: 2871 483d 3e90 d03b 3688 d5bc d87f 923d
00000380: eefd a3bd d774 b83c e6e5 75bd 0bd2 073d
00000390: a82c 67bd a44f 4abc 280b b9bc 9f60 8abd
000003a0: 6e0a 643d 7886 9a3d b25c 97bc 94f3 83bd
000003b0: 96b1 99bd b0fd 223c 197f 8c3d 5a82 acbd
000003c0: 2900 2abd 3caa aa3d b31b 8ebd 2c3a 573c
000003d0: 6442 be3a c2fd b83c 9c26 a53d 92a8 9b3d
000003e0: d27b 1c3d 5c07 a03d bb99 7dbd b947 6b3b
000003f0: 14ce 78bd 07d5 943d 77cf 85bd 750c 203d

fc.0.weight f4 [128, 128]
0.06828525 -0.023944162 0.08041928 -0.08287095 -0.08535936 0.06688426 -0.0011854097 -0.02201096
0.022018082 -0.058384776 0.06498938 0.04509876 -0.0056514293 -0.027726937 0.0076653734 -0.009092338
-0.033163562 -0.02788528 -0.06802864 0.003583029 -0.015981644 -0.08069405 0.009640038 0.038019516
0.07902565 0.086209424 0.013354838 0.0092021525 0.07074664 0.04886777 0.08558025 -0.051750083
0.073724635 0.005951673 -0.041287705 0.047409855 -0.066609904 0.010147192 -0.01594545 0.02392681
-0.03356594 -0.0773641 0.040389635 0.07266178 0.066147275 -0.022431836 -0.009038076 -0.028294157
-0.08540316 0.06711293 0.019170977 0.039919518 -0.006803341 -0.05677566 0.01974485 0.004692696
0.06461341 -0.04304401 -0.048368093 -0.051129617 0.0070498586 -0.07066015 -0.049924143 0.05206
0.07779849 -0.004795313 0.028363086 0.06230604 -0.056586474 0.08803446 0.011490144 -0.011486672
0.05259774 0.06537915 -0.07572746 0.030324928 -0.072123066 -0.017296895 -0.029029801 0.041347377
0.0514744 0.04826174 0.010067426 -0.06152565 0.00475695 -0.07191475 0.06484177 0.003410831
0.0007538274 -0.0106134415 0.07578794 -0.062447697 -0.06833378 -0.072505504 -0.02112735 -0.07106741
0.053326316 -0.085190885 -0.04783189 0.06994236 0.0062896907 0.055818968 0.006444864 0.046027534
0.06659614 0.058378406 0.021421611 -0.006290756 -0.05196698 0.032571472 0.076895826 -0.043169405
-0.05625678 0.049445055 -0.030809335 -0.05384954 0.024186276 -0.0659175 0.0112669915 -0.023722976
-0.024505354 -0.02613483 0.05798865 -0.06827536 -0.019920602 -0.0010053068 0.03026314 0.030480482
-0.018587619 -0.021485187 0.014304845 -0.020123605 -0.08326617 -0.019885242 -0.030571671 -0.084809974
0.0720114 0.08738239 0.0063402993 -0.07855553 0.08144716 -0.062377684 -0.004256243 -2.8838658e-05
0.04684176 0.0049615945 -0.05216253 -0.06874721 0.056133173 -0.06958591 -0.050185505 -0.026453624
-0.021793906 -0.007741314 0.00034092218 0.01660366 -0.08617953 0.0313826 0.072063886 -0.054529786
-0.06837889 -0.08261812 0.040451284 0.033758797 -0.0032311042 0.02523075 0.005383271 -0.044230297
0.0076505537 -0.021314293 0.018130187 -0.021304283 0.015474798 0.046808593 0.060941905 -0.018955337
0.022504006 -0.025072709 -0.030688578 -0.059196323 -0.052673776 0.07710969 -0.040752735 0.0492502
0.055115145 0.00090501225 0.050814796 0.076456465 -0.06957629 0.024615131 0.07674603 -0.028941229
-0.025788015 -0.08818471 0.040204283 0.07305567 0.043139733 -0.06843171 0.05720265 -0.057406686
-0.0372397 0.059791185 0.0033351819 -0.045738712 -0.0012574422 -0.002986887 -0.010934135 -0.041993618
0.07696532 -0.008984441 0.01092722 0.07765185 0.049505077 0.06509473 0.020140149 -0.055919293
0.066295266 -0.05054023 0.004610325 0.05277097 -0.08278096 -0.08484971 0.06037028 0.055185806
-0.039946888 0.08843281 -0.03360882 -0.05652708 0.005638455 -0.04698219 0.022450605 -0.051397603
0.07004484 0.06302905 -0.044974864 0.015072867 0.0008011731 -0.03170838 -0.05720528 -0.048598487
0.08321533 -0.057103075 -0.059829924 0.03015328 -0.023824235 -0.03973294 -0.037663948 0.021005448
0.050523367 0.00692347 0.027552629 -0.061298992 -0.058372475 -0.01979068 0.062216334 0.085051365
00000000: 23d9 8b3d 8c26 c4bc ddb2 a43d 3fb8 a9bd
00000010: e3d0 aebd 9dfa 883d c05f 9bba 5450 b4bc
00000020: 445f b43c e024 6fbd 2719 853d 7ab9 383d
00000030: a02f b9bb 9a23 e3bc d02d fb3b 08f8 14bc
00000040: 84d6 07bd ac6f e4bc 9952 8bbd 40d1 6a3b
00000050: f0eb 82bc ec42 a5bd 40f1 1d3c 5aba 1b3d
00000060: 33d8 a13d 918e b03d 40ce 5a3c a0c4 163c
00000070: 9de3 903d 9229 483d b344 af3d e5f7 53bd
00000080: f1fc 963d 4006 c33b 4c1d 29bd d630 423d
00000090: c66a 88bd 6840 263c 08a0 82bc 2802 c43c
000000a0: 707c 09bd 1271 9ebd 9a6f 253d b3cf 943d
000000b0: 3978 873d f8c2 b7bc 7014 14bc 26c9 e7bc
000000c0: dae7 aebd 8172 893d 740c 9d3c a682 233d
000000d0: 90ee debb 988d 68bd f4bf a13c 30c5 993b
000000e0: 0954 843d ea4e 30bd 9f1d 46bd 4a6d 51bd
000000f0: 8002 e73b 45b6 90bd 427d 4cbd de3c 553d
00000100: d154 9f3d 0022 9dbb b459 e83c 9e34 7f3d
00000110: 38c7 67bd 694b b43d 2841 3c3c 9832 3cbc
00000120: ba70 573d 81e5 853d 0017 9bbd fc6b f83c
00000130: 42b5 93bd 38b2 8dbc e8cf edbc de5b 293d
00000140: d2d6 523d 1aae 453d d8f1 243c 5202 7cbd
00000150: 30e0 9b3b 0a48 93bd c3cb 843d 4088 5f3b
00000160: 809c 453a 00e4 2dbc b536 9b3d 28c9 7fbd
00000170: 95f2 8bbd c47d 94bd 4413 adbc ca8b 91bd
00000180: b26c 5a3d 8f78 aebd 5feb 43bd f13d 8f3d
00000190: c019 ce3b 6ea2 643d 702f d33b 5e87 3c3d
000001a0: 8f63 883d 321e 6f3d 607c af3c b022 cebb
000001b0: 54db 54bd aa69 053d 8f7b 9d3d 67d2 30bd
000001c0: 826d 66bd e686 4a3d dc63 fcbc 5691 5cbd
000001d0: 4c22 c63c c1ff 86bd 3099 383c b056 c2bc
000001e0: 74bf c8bc b618 d6bc 8285 6d3d f4d3 8bbd
000001f0: 8830 a3bc 80c4 83ba 68ea f73c 34b2 f93c
00000200: 1045 98bc b401 b0bc de5e 6a3c 42da a4bc
00000210: 7487 aabd 60e6 a2bc 7171 fabc dab0 adbd
00000220: b67a 933d 8af5 b23d 49c2 cf3b b9e1 a0bd
00000230: c5cd a63d be7f 7fbd f477 8bbb 8cea f1b7
00000240: 25dd 3f3d df94 a23b 61a8 55bd 56cb 8cbd
00000250: e6eb 653d 0f83 8ebd 518f 4dbd 45b5 d8bc
00000260: 2289 b2bc d9aa fdbb cdbd b239 6604 883c
00000270: e57e b0bd 0b8b 003d 3b96 933d a05a 5fbd
00000280: 3b0a 8cbd b033 a9bd 3fb0 253d aa46 0a3d
00000290: efc0 53bb b8b0 ce3c 2666 b03b d42a 35bd
000002a0: 7fb1 fa3b 509b aebc c285 943c 5286 aebc
000002b0: 028a 7d3c 5eba 3f3d 389e 793d 3948 9bbc
000002c0: 525a b83c 4865 cdbc 9d66 fbbc d877 72bd
000002d0: 75c0 57bd afeb 9d3d 57ec 26bd 94ba 493d
000002e0: 6bc0 613d 583e 6d3a 2d23 503d 3595 9c3d
000002f0: 047e 8ebd aca5 c93c 062d 9d3d 2816 edbc
00000300: 6341 d3bc 2f9a b4bd 3fad 243d 369e 953d
00000310: 4ab3 303d ed25 8cbd 534d 6a3d 4623 6bbd
00000320: a888 18bd 9ae7 743d 1193 5a3b 8458 3bbd
00000330: c2d0 a4ba a6bf 43bb 1625 33bc 8001 2cbd
00000340: fe9f 9d3d 7a33 13bc 1508 333c ef07 9f3d
00000350: d6c5 4a3d 6350 853d f4fc a43c a10b 65bd
00000360: d0c5 873d 4603 4fbd 3612 973b 5f26 583d
00000370: 1089 a9bd afc5 adbd d446 773d 830a 623d
00000380: 599f 23bd 431c b53d 67a9 09bd f088 67bd
00000390: cac2 b83b 6670 40bd 55ea b73c 4b86 52bd
000003a0: ab73 8f3d 6015 813d 9037 38bd 30f4 763c
000003b0: d105 523a a5e0 01bd 1550 6abd 350f 47bd
000003c0: cd6c aa3d eae4 69bd 3910 75bd 0304 f73c
000003d0: 0b2b c3bc 02bf 22bd 8345 1abd 9e13 ac3c
000003e0: 97f1 4e3d 47de e23b 0db6 e13c a714 7bbd
000003f0: fa17 6fbd 1020 a2bc 8ed6 7e3d 692f ae3d

fc.0.bias f4 [128]
-0.08615633 0.07627733 0.046723425 0.018450223 -0.016768845 0.061810944 0.08445897 -0.014688395
0.052952804 -0.01837063 -0.010492012 0.0573865 0.06665692 -0.07038772 0.088709086 -0.04470797
-0.05775625 0.004690844 -0.086005524 -0.025449447 0.080601946 -0.08907891 0.022452628 -0.051554136
0.080760434 0.091838196 -0.03089754 0.07278761 -0.07196982 -0.068713605 0.046139248 -0.04636775
-0.07998124 -0.073303595 -0.052196138 -0.035540704 0.07123112 -0.1054398 0.007697974 0.033137273
0.008871649 0.08144858 -0.063530535 -0.058555584 -0.07049877 0.08712935 0.022900563 -0.06589445
0.02821727 -0.023239996 -0.045613628 -0.0029201251 -0.011770719 -0.020976337 -0.013282501 0.046183202
-0.07628391 0.10391492 0.09086564 -0.023731677 -0.07293532 0.0671169 -0.009609029 0.021929795
0.081036486 0.04322885 0.035428442 0.016536508 0.041174415 -0.066651635 -0.020841898 0.030927256
-0.04566338 0.016970308 -0.06323835 -0.044573124 0.08499393 0.07639166 -0.0061601982 0.07460168
0.078531645 -0.03801459 0.06644359 0.07880778 0.064663075 -0.036829825 -0.06853182 -0.01990007
0.014777268 -0.08434817 0.044698518 0.09619948 0.024649268 -0.031523615 -0.052378528 -0.06326392
0.012063429 0.054077208 -0.051390473 0.01895541 -0.08050715 -0.0690258 0.059463773 -0.020337902
0.018935302 -0.02768038 -0.02639606 -0.0050498475 -0.056318656 0.022472717 0.003637028 -0.024053127
-0.08088817 -0.063491315 -0.07145775 -0.05757043 0.049850672 0.09181207 0.011247658 -0.035135992
0.03343204 -0.06365592 0.06968999 -0.026422672 -0.0060356003 0.040459692 -0.037669 -0.05787717
00000000: bb72 b0bd 4a37 9c3d 1061 3f3d ec24 973c
00000010: d15e 89bc 792d 7d3d d3f8 ac3d 98a7 70bc
00000020: 0ae5 583d 017e 96bc b0e6 2bbc 1b0e 6b3d
00000030: 6c83 883d 7027 90bd 1cad b53d b41f 37bd
00000040: d191 6cbd a7b5 993b aa23 b0bd 5c7b d0bc
00000050: a212 a53d 016f b6bd 93ee b73c 6e2a 53bd
00000060: ba65 a53d aa15 bc3d d61c fdbc ac11 953d
00000070: ea64 93bd b8b9 8cbd 82fc 3c3d 1cec 3dbd
00000080: 34cd a3bd 3220 96bd 9ecb 55bd 2193 11bd
00000090: 9fe1 913d d2f0 d7bd 493f fc3b f3ba 073d
000000a0: 655a 113c 83ce a63d 4c1c 82bd fbd7 6fbd
000000b0: a961 90bd df70 b23d f699 bb3c abf3 86bd
000000c0: e727 e73c ce61 bebc 5bd5 3abd 925f 3fbb
000000d0: f9d9 40bc 91d6 abbc d99e 59bc 992a 3d3d
000000e0: bd3a 9cbd 58d1 d43d c417 ba3d ef68 c2bc
000000f0: 1d5f 95bd 9674 893d 306f 1dbc 1da6 b33c
00000100: 75f6 a53d bc10 313d 6a1d 113d 9277 873c
00000110: 81a6 283d a780 88bd a1bc aabc 285b fd3c
00000120: 8609 3bbd 5105 8b3c 1c83 81bd 4f92 36bd
00000130: 4c11 ae3d 3b73 9c3d 7ddb c9bb c4c8 983d
00000140: 33d5 a03d 30b5 1bbd 9413 883d f965 a13d
00000150: 136e 843d dfda 16bd 695a 8cbd 7905 a3bc
00000160: 5b1c 723c bcbe acbd cb15 373d 3c04 c53d
00000170: 43ed c93c e81e 01bd de8a 56bd 8490 81bd
00000180: b0a5 453c 1080 5d3d d17e 52bd 6048 9b3c
00000190: efe0 a4bd 665d 8dbd 4990 733d ac9b a6bc
000001a0: 351e 9b3c f7c1 e2bc 8d3c d8bc 3179 a5bb
000001b0: 64ae 66bd b418 b83c 345b 6e3b 100b c5bc
000001c0: b2a8 a5bd bc07 82bd 7158 92bd f9ce 6bbd
000001d0: 3830 4c3d f707 bc3d 1948 383c c2ea 0fbd
000001e0: 09f0 083d 095e 82bd a0b9 8e3d 5c74 d8bc
000001f0: 49c6 c5bb 10b9 253d cf4a 1abd 9d10 6dbd

fc.2.weight f4 [1, 128]
-0.04469883 0.030717473 0.08726901 -0.047350165 -0.06379307 0.07466899 -0.069030315 -0.053466838
0.011622711 0.0017692656 -0.087869026 0.13928188 0.06488547 -0.059595443 -0.059046987 -0.010288948
-0.042151242 0.035555627 -0.009338133 0.04570622 -0.10821089 0.06667633 -0.09750877 -0.029127102
-0.18779959 -0.16327088 -0.037853725 0.06748293 0.06663391 -0.02436434 0.055302266 -0.02486059
0.008716074 -0.030892555 0.0012329258 -0.0397546 -0.15296362 0.06306514 -0.042133234 0.08003675
-0.044786356 -0.024952073 0.034616843 0.065857194 -0.02700143 0.004417164 0.01704408 -0.026849346
-0.09477163 -0.0025588349 0.0289057 -0.019059299 0.0135321235 -0.080442674 0.025057891 -0.094039775
-0.01577159 -0.24168791 -0.03867931 0.077320404 0.02905445 -0.1645209 0.065572366 -0.08396048
-0.089634545 0.049961425 0.097260185 -0.14705159 -0.14773233 0.046501894 -0.03156703 -0.070040055
-0.025013909 0.087417275 0.049604636 0.07950077 -0.09610881 -0.08753897 -0.023374248 -0.050569892
-0.007135855 -0.08871999 -0.049181722 -0.08094421 -0.12769149 -0.10695949 -0.071866475 0.07787511
0.05418414 0.023626361 -0.103866585 -0.22906008 -0.02944121 -0.054879807 0.08779293 0.073884636
0.07541744 -0.013176585 -0.00551494 0.039899383 0.08383434 -0.0052837953 0.100337714 0.020120537
0.08583451 -0.07719853 0.10551533 0.039697178 -0.023976749 -0.1039067 0.009758043 -0.048839834
-0.068139635 0.07133321 0.022920031 -0.03505657 -0.025054885 -0.20588873 -0.104401544 0.049226128
0.0040801526 0.06737996 -0.1339601 -0.0799027 -0.03701551 -0.0649439 -0.10531435 -0.10900554
00000000: 1f16 37bd 36a3 fb3c 18ba b23d 3ff2 41bd
00000010: f1a5 82bd 0eec 983d c45f 8dbd 0b00 5bbd
00000020: 2f6d 3e3c b4e6 e73a adf4 b3bd e99f 0e3e
00000030: ace2 843d 5a1a 74bd 41db 71bd fa92 28bc
00000040: c8a6 2cbd c7a2 113d f8fe 18bc 7236 3b3d
00000050: ac9d ddbd 9a8d 883d aeb2 c7bd f69b eebc
00000060: 894e 40be 7b30 27be 820c 1bbd 7e34 8a3d
00000070: 5c77 883d b997 c7bc a184 623d 70a8 cbbc
00000080: ddcd 0e3c 6212 fdbc 209a a13a b8d5 22bd
00000090: 7fa2 1cbe 4c28 813d e693 2cbd 4fea a33d
000000a0: e671 37bd 4a68 ccbc 64ca 0d3d 23e0 863d
000000b0: 1a32 ddbc dbbd 903b 07a0 8b3c 29f3 dbbc
000000c0: a117 c2bd 20b2 27bb a6cb ec3c 3f22 9cbc
000000d0: d7b5 5d3c 21bf a4bd 3546 cd3c ed97 c0bd
000000e0: 6c33 81bc 097d 77be 326e 1ebd 295a 9e3d
000000f0: 9903 ee3c 2b78 28be ce4a 863d 79f3 abbd
00000100: 5192 b7bd 5aa4 4c3d 5930 c73d b194 16be
00000110: 2547 17be c578 3e3d 6e4c 01bd 2971 8fbd
00000120: f8e9 ccbc d407 b33d 3b2e 4b3d 4dd1 a23d
00000130: b2d4 c4bd a247 b3bd 5a7b bfbc 6022 4fbd
00000140: e4d3 e9bb d3b2 b5bd c672 49bd 14c6 a5bd
00000150: 8fc1 02be 940d dbbd bb2e 93bd fc7c 9f3d
00000160: 30f0 5d3d 128c c13c 01b8 d4bd ba8e 6abe
00000170: b12e f1bc a6c9 60bd c8cc b33d d450 973d
00000180: 7574 9a3d 9ae2 57bc abb6 b4bb 896d 233d
00000190: 57b1 ab3d b023 adbb dc7d cd3d d3d3 a43c
000001a0: 01ca af3d 431a 9ebd 6c18 d83d 8299 223d
000001b0: e36a c4bc 09cd d4bd 33e0 1f3c 470c 48bd
000001c0: cb8c 8bbd 2517 923d cac2 bb3c 7a97 0fbd
000001d0: e73f cdbc 7fd4 52be 7ad0 d5bd 56a1 493d
000001e0: cdb2 853b 81fe 893d d62c 09be 07a4 a3bd
000001f0: 939d 17bd 4f01 85bd 0daf d7bd 4c3e dfbd
